…
I1006 07:43:12.127321 29441 solver.cpp:91] Creating training net from net file: examples/BIOID_face/bioid_train_val.prototxt
I1006 07:43:12.127609 29441 net.cpp:313] The NetState phase (0) differed from the phase (1) specified by a rule in layer data
I1006 07:43:12.127823 29441 net.cpp:49] Initializing net from parameters: 
name: "FaceNet"
state {
  phase: TRAIN
}
layer {
  name: "data"
  type: "HDF5Data"
  top: "data"
  top: "label"
  include {
    phase: TRAIN
  }
  hdf5_data_param {
    source: "data/BIO_ID_face/train_scaled_compiled_data_list.txt"
    batch_size: 50
    shuffle: true
  }
}
layer {
  name: "conv1"
  type: "Convolution"
  bottom: "data"
  top: "conv1"
  param {
    lr_mult: 1
    decay_mult: 0
  }
  param {
    lr_mult: 2
    decay_mult: 0
  }
  convolution_param {
    num_output: 20
    pad: 2
    kernel_size: 11
    stride: 4
    weight_filler {
      type: "xavier"
    }
    bias_filler {
      type: "constant"
    }
  }
}
layer {
  name: "relu1"
  type: "ReLU"
  bottom: "conv1"
  top: "conv1"
}
layer {
  name: "pool1"
  type: "Pooling"
  bottom: "conv1"
  top: "pool1"
  pooling_param {
    pool: MAX
    kernel_size: 2
    stride: 2
  }
}
layer {
  name: "conv2"
  type: "Convolution"
  bottom: "pool1"
  top: "conv2"
  param {
    lr_mult: 1
    decay_mult: 0
  }
  param {
    lr_mult: 2
    decay_mult: 0
  }
  convolution_param {
    num_output: 40
    pad: 3
    kernel_size: 7
    stride: 1
    weight_filler {
      type: "xavier"
    }
    bias_filler {
      type: "constant"
    }
  }
}
layer {
  name: "relu2"
  type: "ReLU"
  bottom: "conv2"
  top: "conv2"
}
layer {
  name: "pool2"
  type: "Pooling"
  bottom: "conv2"
  top: "pool2"
  pooling_param {
    pool: MAX
    kernel_size: 2
    stride: 2
  }
}
layer {
  name: "conv3"
  type: "Convolution"
  bottom: "pool2"
  top: "conv3"
  param {
    lr_mult: 1
    decay_mult: 0
  }
  param {
    lr_mult: 2
    decay_mult: 0
  }
  convolution_param {
    num_output: 50
    pad: 2
    kernel_size: 5
    stride: 1
    weight_filler {
      type: "xavier"
    }
    bias_filler {
      type: "constant"
    }
  }
}
layer {
  name: "relu3"
  type: "ReLU"
  bottom: "conv3"
  top: "conv3"
}
layer {
  name: "pool3"
  type: "Pooling"
  bottom: "conv3"
  top: "pool3"
  pooling_param {
    pool: MAX
    kernel_size: 2
    stride: 2
  }
}
layer {
  name: "conv4"
  type: "Convolution"
  bottom: "pool3"
  top: "conv4"
  param {
    lr_mult: 1
    decay_mult: 0
  }
  param {
    lr_mult: 2
    decay_mult: 0
  }
  convolution_param {
    num_output: 100
    pad: 2
    kernel_size: 5
    stride: 1
    weight_filler {
      type: "xavier"
    }
    bias_filler {
      type: "constant"
    }
  }
}
layer {
  name: "relu4"
  type: "ReLU"
  bottom: "conv4"
  top: "conv4"
}
layer {
  name: "pool4"
  type: "Pooling"
  bottom: "conv4"
  top: "pool4"
  pooling_param {
    pool: MAX
    kernel_size: 2
    stride: 2
  }
}
layer {
  name: "conv5"
  type: "Convolution"
  bottom: "pool4"
  top: "conv5"
  param {
    lr_mult: 1
    decay_mult: 0
  }
  param {
    lr_mult: 2
    decay_mult: 0
  }
  convolution_param {
    num_output: 200
    pad: 2
    kernel_size: 5
    stride: 1
    weight_filler {
      type: "xavier"
    }
    bias_filler {
      type: "constant"
    }
  }
}
layer {
  name: "relu5"
  type: "ReLU"
  bottom: "conv5"
  top: "conv5"
}
layer {
  name: "pool5"
  type: "Pooling"
  bottom: "conv5"
  top: "pool5"
  pooling_param {
    pool: MAX
    kernel_size: 2
    stride: 2
  }
}
layer {
  name: "fc1"
  type: "InnerProduct"
  bottom: "pool5"
  top: "fc1"
  param {
    lr_mult: 1
    decay_mult: 0
  }
  param {
    lr_mult: 2
    decay_mult: 0
  }
  inner_product_param {
    num_output: 4000
    weight_filler {
      type: "xavier"
    }
    bias_filler {
      type: "constant"
    }
  }
}
layer {
  name: "drop1"
  type: "Dropout"
  bottom: "fc1"
  top: "fc1"
  dropout_param {
    dropout_ratio: 0.5
  }
}
layer {
  name: "fc2"
  type: "InnerProduct"
  bottom: "fc1"
  top: "fc2"
  param {
    lr_mult: 1
    decay_mult: 0
  }
  param {
    lr_mult: 2
    decay_mult: 0
  }
  inner_product_param {
    num_output: 4
    weight_filler {
      type: "xavier"
    }
    bias_filler {
      type: "constant"
    }
  }
}
layer {
  name: "loss"
  type: "EuclideanLoss"
  bottom: "fc2"
  bottom: "label"
  top: "loss"
}
I1006 07:43:12.127946 29441 layer_factory.hpp:77] Creating layer data
I1006 07:43:12.127957 29441 net.cpp:91] Creating Layer data
I1006 07:43:12.127961 29441 net.cpp:399] data -> data
I1006 07:43:12.127979 29441 net.cpp:399] data -> label
I1006 07:43:12.127987 29441 hdf5_data_layer.cpp:79] Loading list of HDF5 filenames from: data/BIO_ID_face/train_scaled_compiled_data_list.txt
I1006 07:43:12.128067 29441 hdf5_data_layer.cpp:93] Number of HDF5 files: 2
I1006 07:43:12.128950 29441 hdf5.cpp:32] Datatype class: H5T_FLOAT
I1006 07:43:12.350828 29441 net.cpp:141] Setting up data
I1006 07:43:12.350853 29441 net.cpp:148] Top shape: 50 1 286 384 (5491200)
I1006 07:43:12.350857 29441 net.cpp:148] Top shape: 50 4 (200)
I1006 07:43:12.350858 29441 net.cpp:156] Memory required for data: 21965600
I1006 07:43:12.350865 29441 layer_factory.hpp:77] Creating layer conv1
I1006 07:43:12.350883 29441 net.cpp:91] Creating Layer conv1
I1006 07:43:12.350888 29441 net.cpp:425] conv1 <- data
I1006 07:43:12.350898 29441 net.cpp:399] conv1 -> conv1
I1006 07:43:12.351856 29441 net.cpp:141] Setting up conv1
I1006 07:43:12.351867 29441 net.cpp:148] Top shape: 50 20 70 95 (6650000)
I1006 07:43:12.351869 29441 net.cpp:156] Memory required for data: 48565600
I1006 07:43:12.351884 29441 layer_factory.hpp:77] Creating layer relu1
I1006 07:43:12.351891 29441 net.cpp:91] Creating Layer relu1
I1006 07:43:12.351894 29441 net.cpp:425] relu1 <- conv1
I1006 07:43:12.351898 29441 net.cpp:386] relu1 -> conv1 (in-place)
I1006 07:43:12.351903 29441 net.cpp:141] Setting up relu1
I1006 07:43:12.351907 29441 net.cpp:148] Top shape: 50 20 70 95 (6650000)
I1006 07:43:12.351909 29441 net.cpp:156] Memory required for data: 75165600
I1006 07:43:12.351912 29441 layer_factory.hpp:77] Creating layer pool1
I1006 07:43:12.351915 29441 net.cpp:91] Creating Layer pool1
I1006 07:43:12.351919 29441 net.cpp:425] pool1 <- conv1
I1006 07:43:12.351923 29441 net.cpp:399] pool1 -> pool1
I1006 07:43:12.351960 29441 net.cpp:141] Setting up pool1
I1006 07:43:12.351965 29441 net.cpp:148] Top shape: 50 20 35 48 (1680000)
I1006 07:43:12.351968 29441 net.cpp:156] Memory required for data: 81885600
I1006 07:43:12.351970 29441 layer_factory.hpp:77] Creating layer conv2
I1006 07:43:12.351977 29441 net.cpp:91] Creating Layer conv2
I1006 07:43:12.351979 29441 net.cpp:425] conv2 <- pool1
I1006 07:43:12.351984 29441 net.cpp:399] conv2 -> conv2
I1006 07:43:12.352736 29441 net.cpp:141] Setting up conv2
I1006 07:43:12.352746 29441 net.cpp:148] Top shape: 50 40 35 48 (3360000)
I1006 07:43:12.352747 29441 net.cpp:156] Memory required for data: 95325600
I1006 07:43:12.352754 29441 layer_factory.hpp:77] Creating layer relu2
I1006 07:43:12.352759 29441 net.cpp:91] Creating Layer relu2
I1006 07:43:12.352761 29441 net.cpp:425] relu2 <- conv2
I1006 07:43:12.352766 29441 net.cpp:386] relu2 -> conv2 (in-place)
I1006 07:43:12.352769 29441 net.cpp:141] Setting up relu2
I1006 07:43:12.352773 29441 net.cpp:148] Top shape: 50 40 35 48 (3360000)
I1006 07:43:12.352776 29441 net.cpp:156] Memory required for data: 108765600
I1006 07:43:12.352777 29441 layer_factory.hpp:77] Creating layer pool2
I1006 07:43:12.352780 29441 net.cpp:91] Creating Layer pool2
I1006 07:43:12.352783 29441 net.cpp:425] pool2 <- conv2
I1006 07:43:12.352787 29441 net.cpp:399] pool2 -> pool2
I1006 07:43:12.352812 29441 net.cpp:141] Setting up pool2
I1006 07:43:12.352816 29441 net.cpp:148] Top shape: 50 40 18 24 (864000)
I1006 07:43:12.352831 29441 net.cpp:156] Memory required for data: 112221600
I1006 07:43:12.352833 29441 layer_factory.hpp:77] Creating layer conv3
I1006 07:43:12.352839 29441 net.cpp:91] Creating Layer conv3
I1006 07:43:12.352843 29441 net.cpp:425] conv3 <- pool2
I1006 07:43:12.352846 29441 net.cpp:399] conv3 -> conv3
I1006 07:43:12.353631 29441 net.cpp:141] Setting up conv3
I1006 07:43:12.353638 29441 net.cpp:148] Top shape: 50 50 18 24 (1080000)
I1006 07:43:12.353641 29441 net.cpp:156] Memory required for data: 116541600
I1006 07:43:12.353648 29441 layer_factory.hpp:77] Creating layer relu3
I1006 07:43:12.353653 29441 net.cpp:91] Creating Layer relu3
I1006 07:43:12.353655 29441 net.cpp:425] relu3 <- conv3
I1006 07:43:12.353659 29441 net.cpp:386] relu3 -> conv3 (in-place)
I1006 07:43:12.353664 29441 net.cpp:141] Setting up relu3
I1006 07:43:12.353667 29441 net.cpp:148] Top shape: 50 50 18 24 (1080000)
I1006 07:43:12.353669 29441 net.cpp:156] Memory required for data: 120861600
I1006 07:43:12.353672 29441 layer_factory.hpp:77] Creating layer pool3
I1006 07:43:12.353675 29441 net.cpp:91] Creating Layer pool3
I1006 07:43:12.353677 29441 net.cpp:425] pool3 <- conv3
I1006 07:43:12.353680 29441 net.cpp:399] pool3 -> pool3
I1006 07:43:12.353708 29441 net.cpp:141] Setting up pool3
I1006 07:43:12.353713 29441 net.cpp:148] Top shape: 50 50 9 12 (270000)
I1006 07:43:12.353715 29441 net.cpp:156] Memory required for data: 121941600
I1006 07:43:12.353718 29441 layer_factory.hpp:77] Creating layer conv4
I1006 07:43:12.353724 29441 net.cpp:91] Creating Layer conv4
I1006 07:43:12.353726 29441 net.cpp:425] conv4 <- pool3
I1006 07:43:12.353730 29441 net.cpp:399] conv4 -> conv4
I1006 07:43:12.354899 29441 net.cpp:141] Setting up conv4
I1006 07:43:12.354908 29441 net.cpp:148] Top shape: 50 100 9 12 (540000)
I1006 07:43:12.354910 29441 net.cpp:156] Memory required for data: 124101600
I1006 07:43:12.354915 29441 layer_factory.hpp:77] Creating layer relu4
I1006 07:43:12.354919 29441 net.cpp:91] Creating Layer relu4
I1006 07:43:12.354921 29441 net.cpp:425] relu4 <- conv4
I1006 07:43:12.354925 29441 net.cpp:386] relu4 -> conv4 (in-place)
I1006 07:43:12.354930 29441 net.cpp:141] Setting up relu4
I1006 07:43:12.354933 29441 net.cpp:148] Top shape: 50 100 9 12 (540000)
I1006 07:43:12.354935 29441 net.cpp:156] Memory required for data: 126261600
I1006 07:43:12.354938 29441 layer_factory.hpp:77] Creating layer pool4
I1006 07:43:12.354941 29441 net.cpp:91] Creating Layer pool4
I1006 07:43:12.354943 29441 net.cpp:425] pool4 <- conv4
I1006 07:43:12.354945 29441 net.cpp:399] pool4 -> pool4
I1006 07:43:12.354970 29441 net.cpp:141] Setting up pool4
I1006 07:43:12.354976 29441 net.cpp:148] Top shape: 50 100 5 6 (150000)
I1006 07:43:12.354979 29441 net.cpp:156] Memory required for data: 126861600
I1006 07:43:12.354980 29441 layer_factory.hpp:77] Creating layer conv5
I1006 07:43:12.354986 29441 net.cpp:91] Creating Layer conv5
I1006 07:43:12.354990 29441 net.cpp:425] conv5 <- pool4
I1006 07:43:12.354992 29441 net.cpp:399] conv5 -> conv5
I1006 07:43:12.358335 29441 net.cpp:141] Setting up conv5
I1006 07:43:12.358345 29441 net.cpp:148] Top shape: 50 200 5 6 (300000)
I1006 07:43:12.358347 29441 net.cpp:156] Memory required for data: 128061600
I1006 07:43:12.358355 29441 layer_factory.hpp:77] Creating layer relu5
I1006 07:43:12.358358 29441 net.cpp:91] Creating Layer relu5
I1006 07:43:12.358361 29441 net.cpp:425] relu5 <- conv5
I1006 07:43:12.358366 29441 net.cpp:386] relu5 -> conv5 (in-place)
I1006 07:43:12.358369 29441 net.cpp:141] Setting up relu5
I1006 07:43:12.358372 29441 net.cpp:148] Top shape: 50 200 5 6 (300000)
I1006 07:43:12.358374 29441 net.cpp:156] Memory required for data: 129261600
I1006 07:43:12.358377 29441 layer_factory.hpp:77] Creating layer pool5
I1006 07:43:12.358381 29441 net.cpp:91] Creating Layer pool5
I1006 07:43:12.358382 29441 net.cpp:425] pool5 <- conv5
I1006 07:43:12.358386 29441 net.cpp:399] pool5 -> pool5
I1006 07:43:12.358412 29441 net.cpp:141] Setting up pool5
I1006 07:43:12.358417 29441 net.cpp:148] Top shape: 50 200 3 3 (90000)
I1006 07:43:12.358429 29441 net.cpp:156] Memory required for data: 129621600
I1006 07:43:12.358431 29441 layer_factory.hpp:77] Creating layer fc1
I1006 07:43:12.358438 29441 net.cpp:91] Creating Layer fc1
I1006 07:43:12.358441 29441 net.cpp:425] fc1 <- pool5
I1006 07:43:12.358444 29441 net.cpp:399] fc1 -> fc1
I1006 07:43:12.400497 29441 net.cpp:141] Setting up fc1
I1006 07:43:12.400516 29441 net.cpp:148] Top shape: 50 4000 (200000)
I1006 07:43:12.400517 29441 net.cpp:156] Memory required for data: 130421600
I1006 07:43:12.400527 29441 layer_factory.hpp:77] Creating layer drop1
I1006 07:43:12.400552 29441 net.cpp:91] Creating Layer drop1
I1006 07:43:12.400555 29441 net.cpp:425] drop1 <- fc1
I1006 07:43:12.400560 29441 net.cpp:386] drop1 -> fc1 (in-place)
I1006 07:43:12.400621 29441 net.cpp:141] Setting up drop1
I1006 07:43:12.400625 29441 net.cpp:148] Top shape: 50 4000 (200000)
I1006 07:43:12.400646 29441 net.cpp:156] Memory required for data: 131221600
I1006 07:43:12.400648 29441 layer_factory.hpp:77] Creating layer fc2
I1006 07:43:12.400652 29441 net.cpp:91] Creating Layer fc2
I1006 07:43:12.400672 29441 net.cpp:425] fc2 <- fc1
I1006 07:43:12.400676 29441 net.cpp:399] fc2 -> fc2
I1006 07:43:12.400888 29441 net.cpp:141] Setting up fc2
I1006 07:43:12.400892 29441 net.cpp:148] Top shape: 50 4 (200)
I1006 07:43:12.400894 29441 net.cpp:156] Memory required for data: 131222400
I1006 07:43:12.400898 29441 layer_factory.hpp:77] Creating layer loss
I1006 07:43:12.400902 29441 net.cpp:91] Creating Layer loss
I1006 07:43:12.400902 29441 net.cpp:425] loss <- fc2
I1006 07:43:12.400904 29441 net.cpp:425] loss <- label
I1006 07:43:12.400909 29441 net.cpp:399] loss -> loss
I1006 07:43:12.400950 29441 net.cpp:141] Setting up loss
…
I1006 07:43:12.401345 29441 solver.cpp:181] Creating test net (#0) specified by net file: examples/BIOID_face/bioid_train_val.prototxt
I1006 07:43:12.401384 29441 net.cpp:313] The NetState phase (1) differed from the phase (0) specified by a rule in layer data
I1006 07:43:12.401496 29441 net.cpp:49] Initializing net from parameters: 
name: "FaceNet"
state {
  phase: TEST
}
layer {
  name: "data"
  type: "HDF5Data"
  top: "data"
  top: "label"
  include {
    phase: TEST
  }
  hdf5_data_param {
    source: "data/BIO_ID_face/val_scaled_compiled_data_list.txt"
    batch_size: 40
    shuffle: true
  }
}
layer {
  name: "conv1"
  type: "Convolution"
  bottom: "data"
  top: "conv1"
  param {
    lr_mult: 1
    decay_mult: 0
  }
  param {
    lr_mult: 2
    decay_mult: 0
  }
  convolution_param {
    num_output: 20
    pad: 2
    kernel_size: 11
    stride: 4
    weight_filler {
      type: "xavier"
    }
    bias_filler {
      type: "constant"
    }
  }
}
layer {
  name: "relu1"
  type: "ReLU"
  bottom: "conv1"
  top: "conv1"
}
layer {
  name: "pool1"
  type: "Pooling"
  bottom: "conv1"
  top: "pool1"
  pooling_param {
    pool: MAX
    kernel_size: 2
    stride: 2
  }
}
layer {
  name: "conv2"
  type: "Convolution"
  bottom: "pool1"
  top: "conv2"
  param {
    lr_mult: 1
    decay_mult: 0
  }
  param {
    lr_mult: 2
    decay_mult: 0
  }
  convolution_param {
    num_output: 40
    pad: 3
    kernel_size: 7
    stride: 1
    weight_filler {
      type: "xavier"
    }
    bias_filler {
      type: "constant"
    }
  }
}
layer {
  name: "relu2"
  type: "ReLU"
  bottom: "conv2"
  top: "conv2"
}
layer {
  name: "pool2"
  type: "Pooling"
  bottom: "conv2"
  top: "pool2"
  pooling_param {
    pool: MAX
    kernel_size: 2
    stride: 2
  }
}
layer {
  name: "conv3"
  type: "Convolution"
  bottom: "pool2"
  top: "conv3"
  param {
    lr_mult: 1
    decay_mult: 0
  }
  param {
    lr_mult: 2
    decay_mult: 0
  }
  convolution_param {
    num_output: 50
    pad: 2
    kernel_size: 5
    stride: 1
    weight_filler {
      type: "xavier"
    }
    bias_filler {
      type: "constant"
    }
  }
}
layer {
  name: "relu3"
  type: "ReLU"
  bottom: "conv3"
  top: "conv3"
}
layer {
  name: "pool3"
  type: "Pooling"
  bottom: "conv3"
  top: "pool3"
  pooling_param {
    pool: MAX
    kernel_size: 2
    stride: 2
  }
}
layer {
  name: "conv4"
  type: "Convolution"
  bottom: "pool3"
  top: "conv4"
  param {
    lr_mult: 1
    decay_mult: 0
  }
  param {
    lr_mult: 2
    decay_mult: 0
  }
  convolution_param {
    num_output: 100
    pad: 2
    kernel_size: 5
    stride: 1
    weight_filler {
      type: "xavier"
    }
    bias_filler {
      type: "constant"
    }
  }
}
layer {
  name: "relu4"
  type: "ReLU"
  bottom: "conv4"
  top: "conv4"
}
layer {
  name: "pool4"
  type: "Pooling"
  bottom: "conv4"
  top: "pool4"
  pooling_param {
    pool: MAX
    kernel_size: 2
    stride: 2
  }
}
layer {
  name: "conv5"
  type: "Convolution"
  bottom: "pool4"
  top: "conv5"
  param {
    lr_mult: 1
    decay_mult: 0
  }
  param {
    lr_mult: 2
    decay_mult: 0
  }
  convolution_param {
    num_output: 200
    pad: 2
    kernel_size: 5
    stride: 1
    weight_filler {
      type: "xavier"
    }
    bias_filler {
      type: "constant"
    }
  }
}
layer {
  name: "relu5"
  type: "ReLU"
  bottom: "conv5"
  top: "conv5"
}
layer {
  name: "pool5"
  type: "Pooling"
  bottom: "conv5"
  top: "pool5"
  pooling_param {
    pool: MAX
    kernel_size: 2
    stride: 2
  }
}
layer {
  name: "fc1"
  type: "InnerProduct"
  bottom: "pool5"
  top: "fc1"
  param {
    lr_mult: 1
    decay_mult: 0
  }
  param {
    lr_mult: 2
    decay_mult: 0
  }
  inner_product_param {
    num_output: 4000
    weight_filler {
      type: "xavier"
    }
    bias_filler {
      type: "constant"
    }
  }
}
layer {
  name: "drop1"
  type: "Dropout"
  bottom: "fc1"
  top: "fc1"
  dropout_param {
    dropout_ratio: 0.5
  }
}
layer {
  name: "fc2"
  type: "InnerProduct"
  bottom: "fc1"
  top: "fc2"
  param {
    lr_mult: 1
    decay_mult: 0
  }
  param {
    lr_mult: 2
    decay_mult: 0
  }
  inner_product_param {
    num_output: 4
    weight_filler {
      type: "xavier"
    }
    bias_filler {
      type: "constant"
    }
  }
}
layer {
  name: "loss"
  type: "EuclideanLoss"
  bottom: "fc2"
  bottom: "label"
  top: "loss"
}
I1006 07:43:12.401585 29441 layer_factory.hpp:77] Creating layer data
I1006 07:43:12.401592 29441 net.cpp:91] Creating Layer data
I1006 07:43:12.401595 29441 net.cpp:399] data -> data
I1006 07:43:12.401614 29441 net.cpp:399] data -> label
I1006 07:43:12.401618 29441 hdf5_data_layer.cpp:79] Loading list of HDF5 filenames from: data/BIO_ID_face/val_scaled_compiled_data_list.txt
I1006 07:43:12.401638 29441 hdf5_data_layer.cpp:93] Number of HDF5 files: 2
I1006 07:43:12.435324 29441 net.cpp:141] Setting up data
I1006 07:43:12.435345 29441 net.cpp:148] Top shape: 40 1 286 384 (4392960)
I1006 07:43:12.435353 29441 net.cpp:148] Top shape: 40 4 (160)
I1006 07:43:12.435354 29441 net.cpp:156] Memory required for data: 17572480
I1006 07:43:12.435367 29441 layer_factory.hpp:77] Creating layer conv1
I1006 07:43:12.435381 29441 net.cpp:91] Creating Layer conv1
I1006 07:43:12.435384 29441 net.cpp:425] conv1 <- data
I1006 07:43:12.435389 29441 net.cpp:399] conv1 -> conv1
I1006 07:43:12.435591 29441 net.cpp:141] Setting up conv1
I1006 07:43:12.435597 29441 net.cpp:148] Top shape: 40 20 70 95 (5320000)
I1006 07:43:12.435600 29441 net.cpp:156] Memory required for data: 38852480
I1006 07:43:12.435608 29441 layer_factory.hpp:77] Creating layer relu1
I1006 07:43:12.435614 29441 net.cpp:91] Creating Layer relu1
I1006 07:43:12.435616 29441 net.cpp:425] relu1 <- conv1
I1006 07:43:12.435619 29441 net.cpp:386] relu1 -> conv1 (in-place)
I1006 07:43:12.435624 29441 net.cpp:141] Setting up relu1
I1006 07:43:12.435627 29441 net.cpp:148] Top shape: 40 20 70 95 (5320000)
I1006 07:43:12.435629 29441 net.cpp:156] Memory required for data: 60132480
I1006 07:43:12.435631 29441 layer_factory.hpp:77] Creating layer pool1
I1006 07:43:12.435636 29441 net.cpp:91] Creating Layer pool1
I1006 07:43:12.435638 29441 net.cpp:425] pool1 <- conv1
I1006 07:43:12.435642 29441 net.cpp:399] pool1 -> pool1
I1006 07:43:12.435668 29441 net.cpp:141] Setting up pool1
I1006 07:43:12.435673 29441 net.cpp:148] Top shape: 40 20 35 48 (1344000)
I1006 07:43:12.435677 29441 net.cpp:156] Memory required for data: 65508480
I1006 07:43:12.435678 29441 layer_factory.hpp:77] Creating layer conv2
I1006 07:43:12.435684 29441 net.cpp:91] Creating Layer conv2
I1006 07:43:12.435686 29441 net.cpp:425] conv2 <- pool1
I1006 07:43:12.435690 29441 net.cpp:399] conv2 -> conv2
I1006 07:43:12.436072 29441 net.cpp:141] Setting up conv2
I1006 07:43:12.436079 29441 net.cpp:148] Top shape: 40 40 35 48 (2688000)
I1006 07:43:12.436081 29441 net.cpp:156] Memory required for data: 76260480
I1006 07:43:12.436087 29441 layer_factory.hpp:77] Creating layer relu2
I1006 07:43:12.436091 29441 net.cpp:91] Creating Layer relu2
I1006 07:43:12.436094 29441 net.cpp:425] relu2 <- conv2
I1006 07:43:12.436096 29441 net.cpp:386] relu2 -> conv2 (in-place)
I1006 07:43:12.436100 29441 net.cpp:141] Setting up relu2
I1006 07:43:12.436105 29441 net.cpp:148] Top shape: 40 40 35 48 (2688000)
I1006 07:43:12.436106 29441 net.cpp:156] Memory required for data: 87012480
I1006 07:43:12.436108 29441 layer_factory.hpp:77] Creating layer pool2
I1006 07:43:12.436111 29441 net.cpp:91] Creating Layer pool2
I1006 07:43:12.436113 29441 net.cpp:425] pool2 <- conv2
I1006 07:43:12.436116 29441 net.cpp:399] pool2 -> pool2
I1006 07:43:12.436142 29441 net.cpp:141] Setting up pool2
I1006 07:43:12.436148 29441 net.cpp:148] Top shape: 40 40 18 24 (691200)
I1006 07:43:12.436151 29441 net.cpp:156] Memory required for data: 89777280
I1006 07:43:12.436152 29441 layer_factory.hpp:77] Creating layer conv3
I1006 07:43:12.436157 29441 net.cpp:91] Creating Layer conv3
I1006 07:43:12.436161 29441 net.cpp:425] conv3 <- pool2
I1006 07:43:12.436164 29441 net.cpp:399] conv3 -> conv3
I1006 07:43:12.436606 29441 net.cpp:141] Setting up conv3
I1006 07:43:12.436614 29441 net.cpp:148] Top shape: 40 50 18 24 (864000)
I1006 07:43:12.436615 29441 net.cpp:156] Memory required for data: 93233280
I1006 07:43:12.436621 29441 layer_factory.hpp:77] Creating layer relu3
I1006 07:43:12.436625 29441 net.cpp:91] Creating Layer relu3
I1006 07:43:12.436628 29441 net.cpp:425] relu3 <- conv3
I1006 07:43:12.436631 29441 net.cpp:386] relu3 -> conv3 (in-place)
I1006 07:43:12.436635 29441 net.cpp:141] Setting up relu3
I1006 07:43:12.436638 29441 net.cpp:148] Top shape: 40 50 18 24 (864000)
I1006 07:43:12.436640 29441 net.cpp:156] Memory required for data: 96689280
I1006 07:43:12.436672 29441 layer_factory.hpp:77] Creating layer pool3
I1006 07:43:12.436676 29441 net.cpp:91] Creating Layer pool3
I1006 07:43:12.436678 29441 net.cpp:425] pool3 <- conv3
I1006 07:43:12.436681 29441 net.cpp:399] pool3 -> pool3
I1006 07:43:12.436708 29441 net.cpp:141] Setting up pool3
I1006 07:43:12.436713 29441 net.cpp:148] Top shape: 40 50 9 12 (216000)
I1006 07:43:12.436715 29441 net.cpp:156] Memory required for data: 97553280
I1006 07:43:12.436717 29441 layer_factory.hpp:77] Creating layer conv4
I1006 07:43:12.436723 29441 net.cpp:91] Creating Layer conv4
I1006 07:43:12.436727 29441 net.cpp:425] conv4 <- pool3
I1006 07:43:12.436729 29441 net.cpp:399] conv4 -> conv4
I1006 07:43:12.437552 29441 net.cpp:141] Setting up conv4
I1006 07:43:12.437559 29441 net.cpp:148] Top shape: 40 100 9 12 (432000)
I1006 07:43:12.437561 29441 net.cpp:156] Memory required for data: 99281280
I1006 07:43:12.437566 29441 layer_factory.hpp:77] Creating layer relu4
I1006 07:43:12.437568 29441 net.cpp:91] Creating Layer relu4
I1006 07:43:12.437572 29441 net.cpp:425] relu4 <- conv4
I1006 07:43:12.437574 29441 net.cpp:386] relu4 -> conv4 (in-place)
I1006 07:43:12.437577 29441 net.cpp:141] Setting up relu4
I1006 07:43:12.437580 29441 net.cpp:148] Top shape: 40 100 9 12 (432000)
I1006 07:43:12.437582 29441 net.cpp:156] Memory required for data: 101009280
I1006 07:43:12.437584 29441 layer_factory.hpp:77] Creating layer pool4
I1006 07:43:12.437587 29441 net.cpp:91] Creating Layer pool4
I1006 07:43:12.437589 29441 net.cpp:425] pool4 <- conv4
I1006 07:43:12.437592 29441 net.cpp:399] pool4 -> pool4
I1006 07:43:12.437615 29441 net.cpp:141] Setting up pool4
I1006 07:43:12.437620 29441 net.cpp:148] Top shape: 40 100 5 6 (120000)
I1006 07:43:12.437623 29441 net.cpp:156] Memory required for data: 101489280
I1006 07:43:12.437624 29441 layer_factory.hpp:77] Creating layer conv5
I1006 07:43:12.437630 29441 net.cpp:91] Creating Layer conv5
I1006 07:43:12.437633 29441 net.cpp:425] conv5 <- pool4
I1006 07:43:12.437635 29441 net.cpp:399] conv5 -> conv5
I1006 07:43:12.440923 29441 net.cpp:141] Setting up conv5
I1006 07:43:12.440932 29441 net.cpp:148] Top shape: 40 200 5 6 (240000)
I1006 07:43:12.440934 29441 net.cpp:156] Memory required for data: 102449280
I1006 07:43:12.440942 29441 layer_factory.hpp:77] Creating layer relu5
I1006 07:43:12.440945 29441 net.cpp:91] Creating Layer relu5
I1006 07:43:12.440948 29441 net.cpp:425] relu5 <- conv5
I1006 07:43:12.440951 29441 net.cpp:386] relu5 -> conv5 (in-place)
I1006 07:43:12.440955 29441 net.cpp:141] Setting up relu5
I1006 07:43:12.440959 29441 net.cpp:148] Top shape: 40 200 5 6 (240000)
I1006 07:43:12.440960 29441 net.cpp:156] Memory required for data: 103409280
I1006 07:43:12.440963 29441 layer_factory.hpp:77] Creating layer pool5
I1006 07:43:12.440965 29441 net.cpp:91] Creating Layer pool5
I1006 07:43:12.440968 29441 net.cpp:425] pool5 <- conv5
I1006 07:43:12.440970 29441 net.cpp:399] pool5 -> pool5
I1006 07:43:12.440995 29441 net.cpp:141] Setting up pool5
I1006 07:43:12.441000 29441 net.cpp:148] Top shape: 40 200 3 3 (72000)
I1006 07:43:12.441002 29441 net.cpp:156] Memory required for data: 103697280
I1006 07:43:12.441004 29441 layer_factory.hpp:77] Creating layer fc1
I1006 07:43:12.441022 29441 net.cpp:91] Creating Layer fc1
I1006 07:43:12.441025 29441 net.cpp:425] fc1 <- pool5
I1006 07:43:12.441028 29441 net.cpp:399] fc1 -> fc1
I1006 07:43:12.480705 29441 net.cpp:141] Setting up fc1
I1006 07:43:12.480721 29441 net.cpp:148] Top shape: 40 4000 (160000)
I1006 07:43:12.480723 29441 net.cpp:156] Memory required for data: 104337280
I1006 07:43:12.480749 29441 layer_factory.hpp:77] Creating layer drop1
I1006 07:43:12.480756 29441 net.cpp:91] Creating Layer drop1
I1006 07:43:12.480758 29441 net.cpp:425] drop1 <- fc1
I1006 07:43:12.480763 29441 net.cpp:386] drop1 -> fc1 (in-place)
I1006 07:43:12.480814 29441 net.cpp:141] Setting up drop1
I1006 07:43:12.480819 29441 net.cpp:148] Top shape: 40 4000 (160000)
I1006 07:43:12.480820 29441 net.cpp:156] Memory required for data: 104977280
I1006 07:43:12.480870 29441 layer_factory.hpp:77] Creating layer fc2
I1006 07:43:12.480877 29441 net.cpp:91] Creating Layer fc2
I1006 07:43:12.480878 29441 net.cpp:425] fc2 <- fc1
I1006 07:43:12.480882 29441 net.cpp:399] fc2 -> fc2
I1006 07:43:12.481050 29441 net.cpp:141] Setting up fc2
I1006 07:43:12.481055 29441 net.cpp:148] Top shape: 40 4 (160)
I1006 07:43:12.481055 29441 net.cpp:156] Memory required for data: 104977920
I1006 07:43:12.481060 29441 layer_factory.hpp:77] Creating layer loss
I1006 07:43:12.481081 29441 net.cpp:91] Creating Layer loss
I1006 07:43:12.481083 29441 net.cpp:425] loss <- fc2
I1006 07:43:12.481086 29441 net.cpp:425] loss <- label
I1006 07:43:12.481089 29441 net.cpp:399] loss -> loss
I1006 07:43:12.481130 29441 net.cpp:141] Setting up loss
…
