…
I1007 00:04:01.502105  8947 solver.cpp:91] Creating training net from net file: examples/BIOID_face/bioid_train_val.prototxt
I1007 00:04:01.502442  8947 net.cpp:313] The NetState phase (0) differed from the phase (1) specified by a rule in layer data
I1007 00:04:01.502607  8947 net.cpp:49] Initializing net from parameters: 
name: "FaceNet"
state {
  phase: TRAIN
}
layer {
  name: "data"
  type: "HDF5Data"
  top: "data"
  top: "label"
  include {
    phase: TRAIN
  }
  hdf5_data_param {
    source: "data/BIO_ID_face/train_scaled_compiled_data_list.txt"
    batch_size: 50
    shuffle: true
  }
}
layer {
  name: "conv1"
  type: "Convolution"
  bottom: "data"
  top: "conv1"
  param {
    lr_mult: 1
    decay_mult: 0
  }
  param {
    lr_mult: 2
    decay_mult: 0
  }
  convolution_param {
    num_output: 20
    pad: 2
    kernel_size: 11
    stride: 4
    weight_filler {
      type: "xavier"
    }
    bias_filler {
      type: "constant"
    }
  }
}
layer {
  name: "relu1"
  type: "ReLU"
  bottom: "conv1"
  top: "conv1"
}
layer {
  name: "pool1"
  type: "Pooling"
  bottom: "conv1"
  top: "pool1"
  pooling_param {
    pool: MAX
    kernel_size: 2
    stride: 2
  }
}
layer {
  name: "conv2"
  type: "Convolution"
  bottom: "pool1"
  top: "conv2"
  param {
    lr_mult: 1
    decay_mult: 0
  }
  param {
    lr_mult: 2
    decay_mult: 0
  }
  convolution_param {
    num_output: 40
    pad: 3
    kernel_size: 7
    stride: 1
    weight_filler {
      type: "xavier"
    }
    bias_filler {
      type: "constant"
    }
  }
}
layer {
  name: "relu2"
  type: "ReLU"
  bottom: "conv2"
  top: "conv2"
}
layer {
  name: "pool2"
  type: "Pooling"
  bottom: "conv2"
  top: "pool2"
  pooling_param {
    pool: MAX
    kernel_size: 2
    stride: 2
  }
}
layer {
  name: "conv3"
  type: "Convolution"
  bottom: "pool2"
  top: "conv3"
  param {
    lr_mult: 1
    decay_mult: 0
  }
  param {
    lr_mult: 2
    decay_mult: 0
  }
  convolution_param {
    num_output: 50
    pad: 2
    kernel_size: 5
    stride: 1
    weight_filler {
      type: "xavier"
    }
    bias_filler {
      type: "constant"
    }
  }
}
layer {
  name: "relu3"
  type: "ReLU"
  bottom: "conv3"
  top: "conv3"
}
layer {
  name: "pool3"
  type: "Pooling"
  bottom: "conv3"
  top: "pool3"
  pooling_param {
    pool: MAX
    kernel_size: 2
    stride: 2
  }
}
layer {
  name: "conv4"
  type: "Convolution"
  bottom: "pool3"
  top: "conv4"
  param {
    lr_mult: 1
    decay_mult: 0
  }
  param {
    lr_mult: 2
    decay_mult: 0
  }
  convolution_param {
    num_output: 100
    pad: 2
    kernel_size: 5
    stride: 1
    weight_filler {
      type: "xavier"
    }
    bias_filler {
      type: "constant"
    }
  }
}
layer {
  name: "relu4"
  type: "ReLU"
  bottom: "conv4"
  top: "conv4"
}
layer {
  name: "pool4"
  type: "Pooling"
  bottom: "conv4"
  top: "pool4"
  pooling_param {
    pool: MAX
    kernel_size: 2
    stride: 2
  }
}
layer {
  name: "conv5"
  type: "Convolution"
  bottom: "pool4"
  top: "conv5"
  param {
    lr_mult: 1
    decay_mult: 0
  }
  param {
    lr_mult: 2
    decay_mult: 0
  }
  convolution_param {
    num_output: 200
    pad: 2
    kernel_size: 5
    stride: 1
    weight_filler {
      type: "xavier"
    }
    bias_filler {
      type: "constant"
    }
  }
}
layer {
  name: "relu5"
  type: "ReLU"
  bottom: "conv5"
  top: "conv5"
}
layer {
  name: "pool5"
  type: "Pooling"
  bottom: "conv5"
  top: "pool5"
  pooling_param {
    pool: MAX
    kernel_size: 2
    stride: 2
  }
}
layer {
  name: "conv6"
  type: "Convolution"
  bottom: "pool5"
  top: "conv6"
  param {
    lr_mult: 1
    decay_mult: 0
  }
  param {
    lr_mult: 2
    decay_mult: 0
  }
  convolution_param {
    num_output: 4000
    pad: 0
    kernel_size: 3
    stride: 1
    weight_filler {
      type: "xavier"
    }
    bias_filler {
      type: "constant"
    }
  }
}
layer {
  name: "drop1"
  type: "Dropout"
  bottom: "conv6"
  top: "conv6"
  dropout_param {
    dropout_ratio: 0.5
  }
}
layer {
  name: "conv7"
  type: "Convolution"
  bottom: "conv6"
  top: "conv7"
  param {
    lr_mult: 1
    decay_mult: 0
  }
  param {
    lr_mult: 2
    decay_mult: 0
  }
  convolution_param {
    num_output: 4
    pad: 0
    kernel_size: 1
    stride: 1
    weight_filler {
      type: "xavier"
    }
    bias_filler {
      type: "constant"
    }
  }
}
layer {
  name: "loss"
  type: "EuclideanLoss"
  bottom: "conv7"
  bottom: "label"
  top: "loss"
}
I1007 00:04:01.502704  8947 layer_factory.hpp:77] Creating layer data
I1007 00:04:01.502718  8947 net.cpp:91] Creating Layer data
I1007 00:04:01.502724  8947 net.cpp:399] data -> data
I1007 00:04:01.502777  8947 net.cpp:399] data -> label
I1007 00:04:01.502789  8947 hdf5_data_layer.cpp:79] Loading list of HDF5 filenames from: data/BIO_ID_face/train_scaled_compiled_data_list.txt
I1007 00:04:01.502813  8947 hdf5_data_layer.cpp:93] Number of HDF5 files: 2
I1007 00:04:01.503568  8947 hdf5.cpp:32] Datatype class: H5T_FLOAT
I1007 00:04:01.721498  8947 net.cpp:141] Setting up data
I1007 00:04:01.721523  8947 net.cpp:148] Top shape: 50 1 286 384 (5491200)
I1007 00:04:01.721526  8947 net.cpp:148] Top shape: 50 4 (200)
I1007 00:04:01.721529  8947 net.cpp:156] Memory required for data: 21965600
I1007 00:04:01.721534  8947 layer_factory.hpp:77] Creating layer conv1
I1007 00:04:01.721554  8947 net.cpp:91] Creating Layer conv1
I1007 00:04:01.721560  8947 net.cpp:425] conv1 <- data
I1007 00:04:01.721570  8947 net.cpp:399] conv1 -> conv1
I1007 00:04:01.722596  8947 net.cpp:141] Setting up conv1
I1007 00:04:01.722607  8947 net.cpp:148] Top shape: 50 20 70 95 (6650000)
I1007 00:04:01.722610  8947 net.cpp:156] Memory required for data: 48565600
I1007 00:04:01.722626  8947 layer_factory.hpp:77] Creating layer relu1
I1007 00:04:01.722632  8947 net.cpp:91] Creating Layer relu1
I1007 00:04:01.722635  8947 net.cpp:425] relu1 <- conv1
I1007 00:04:01.722640  8947 net.cpp:386] relu1 -> conv1 (in-place)
I1007 00:04:01.722645  8947 net.cpp:141] Setting up relu1
I1007 00:04:01.722650  8947 net.cpp:148] Top shape: 50 20 70 95 (6650000)
I1007 00:04:01.722651  8947 net.cpp:156] Memory required for data: 75165600
I1007 00:04:01.722654  8947 layer_factory.hpp:77] Creating layer pool1
I1007 00:04:01.722658  8947 net.cpp:91] Creating Layer pool1
I1007 00:04:01.722663  8947 net.cpp:425] pool1 <- conv1
I1007 00:04:01.722667  8947 net.cpp:399] pool1 -> pool1
I1007 00:04:01.722715  8947 net.cpp:141] Setting up pool1
I1007 00:04:01.722721  8947 net.cpp:148] Top shape: 50 20 35 48 (1680000)
I1007 00:04:01.722723  8947 net.cpp:156] Memory required for data: 81885600
I1007 00:04:01.722726  8947 layer_factory.hpp:77] Creating layer conv2
I1007 00:04:01.722734  8947 net.cpp:91] Creating Layer conv2
I1007 00:04:01.722738  8947 net.cpp:425] conv2 <- pool1
I1007 00:04:01.722741  8947 net.cpp:399] conv2 -> conv2
I1007 00:04:01.723527  8947 net.cpp:141] Setting up conv2
I1007 00:04:01.723537  8947 net.cpp:148] Top shape: 50 40 35 48 (3360000)
I1007 00:04:01.723541  8947 net.cpp:156] Memory required for data: 95325600
I1007 00:04:01.723547  8947 layer_factory.hpp:77] Creating layer relu2
I1007 00:04:01.723551  8947 net.cpp:91] Creating Layer relu2
I1007 00:04:01.723556  8947 net.cpp:425] relu2 <- conv2
I1007 00:04:01.723558  8947 net.cpp:386] relu2 -> conv2 (in-place)
I1007 00:04:01.723563  8947 net.cpp:141] Setting up relu2
I1007 00:04:01.723567  8947 net.cpp:148] Top shape: 50 40 35 48 (3360000)
I1007 00:04:01.723569  8947 net.cpp:156] Memory required for data: 108765600
I1007 00:04:01.723572  8947 layer_factory.hpp:77] Creating layer pool2
I1007 00:04:01.723575  8947 net.cpp:91] Creating Layer pool2
I1007 00:04:01.723577  8947 net.cpp:425] pool2 <- conv2
I1007 00:04:01.723582  8947 net.cpp:399] pool2 -> pool2
I1007 00:04:01.723623  8947 net.cpp:141] Setting up pool2
I1007 00:04:01.723644  8947 net.cpp:148] Top shape: 50 40 18 24 (864000)
I1007 00:04:01.723649  8947 net.cpp:156] Memory required for data: 112221600
I1007 00:04:01.723652  8947 layer_factory.hpp:77] Creating layer conv3
I1007 00:04:01.723660  8947 net.cpp:91] Creating Layer conv3
I1007 00:04:01.723662  8947 net.cpp:425] conv3 <- pool2
I1007 00:04:01.723667  8947 net.cpp:399] conv3 -> conv3
I1007 00:04:01.724494  8947 net.cpp:141] Setting up conv3
I1007 00:04:01.724503  8947 net.cpp:148] Top shape: 50 50 18 24 (1080000)
I1007 00:04:01.724506  8947 net.cpp:156] Memory required for data: 116541600
I1007 00:04:01.724514  8947 layer_factory.hpp:77] Creating layer relu3
I1007 00:04:01.724519  8947 net.cpp:91] Creating Layer relu3
I1007 00:04:01.724521  8947 net.cpp:425] relu3 <- conv3
I1007 00:04:01.724525  8947 net.cpp:386] relu3 -> conv3 (in-place)
I1007 00:04:01.724530  8947 net.cpp:141] Setting up relu3
I1007 00:04:01.724534  8947 net.cpp:148] Top shape: 50 50 18 24 (1080000)
I1007 00:04:01.724536  8947 net.cpp:156] Memory required for data: 120861600
I1007 00:04:01.724539  8947 layer_factory.hpp:77] Creating layer pool3
I1007 00:04:01.724541  8947 net.cpp:91] Creating Layer pool3
I1007 00:04:01.724545  8947 net.cpp:425] pool3 <- conv3
I1007 00:04:01.724548  8947 net.cpp:399] pool3 -> pool3
I1007 00:04:01.724584  8947 net.cpp:141] Setting up pool3
I1007 00:04:01.724592  8947 net.cpp:148] Top shape: 50 50 9 12 (270000)
I1007 00:04:01.724597  8947 net.cpp:156] Memory required for data: 121941600
I1007 00:04:01.724601  8947 layer_factory.hpp:77] Creating layer conv4
I1007 00:04:01.724609  8947 net.cpp:91] Creating Layer conv4
I1007 00:04:01.724612  8947 net.cpp:425] conv4 <- pool3
I1007 00:04:01.724617  8947 net.cpp:399] conv4 -> conv4
I1007 00:04:01.725841  8947 net.cpp:141] Setting up conv4
I1007 00:04:01.725852  8947 net.cpp:148] Top shape: 50 100 9 12 (540000)
I1007 00:04:01.725853  8947 net.cpp:156] Memory required for data: 124101600
I1007 00:04:01.725859  8947 layer_factory.hpp:77] Creating layer relu4
I1007 00:04:01.725863  8947 net.cpp:91] Creating Layer relu4
I1007 00:04:01.725867  8947 net.cpp:425] relu4 <- conv4
I1007 00:04:01.725870  8947 net.cpp:386] relu4 -> conv4 (in-place)
I1007 00:04:01.725875  8947 net.cpp:141] Setting up relu4
I1007 00:04:01.725878  8947 net.cpp:148] Top shape: 50 100 9 12 (540000)
I1007 00:04:01.725880  8947 net.cpp:156] Memory required for data: 126261600
I1007 00:04:01.725883  8947 layer_factory.hpp:77] Creating layer pool4
I1007 00:04:01.725886  8947 net.cpp:91] Creating Layer pool4
I1007 00:04:01.725889  8947 net.cpp:425] pool4 <- conv4
I1007 00:04:01.725893  8947 net.cpp:399] pool4 -> pool4
I1007 00:04:01.725919  8947 net.cpp:141] Setting up pool4
I1007 00:04:01.725926  8947 net.cpp:148] Top shape: 50 100 5 6 (150000)
I1007 00:04:01.725929  8947 net.cpp:156] Memory required for data: 126861600
I1007 00:04:01.725934  8947 layer_factory.hpp:77] Creating layer conv5
I1007 00:04:01.725944  8947 net.cpp:91] Creating Layer conv5
I1007 00:04:01.725949  8947 net.cpp:425] conv5 <- pool4
I1007 00:04:01.725953  8947 net.cpp:399] conv5 -> conv5
I1007 00:04:01.729440  8947 net.cpp:141] Setting up conv5
I1007 00:04:01.729450  8947 net.cpp:148] Top shape: 50 200 5 6 (300000)
I1007 00:04:01.729454  8947 net.cpp:156] Memory required for data: 128061600
I1007 00:04:01.729461  8947 layer_factory.hpp:77] Creating layer relu5
I1007 00:04:01.729465  8947 net.cpp:91] Creating Layer relu5
I1007 00:04:01.729468  8947 net.cpp:425] relu5 <- conv5
I1007 00:04:01.729472  8947 net.cpp:386] relu5 -> conv5 (in-place)
I1007 00:04:01.729477  8947 net.cpp:141] Setting up relu5
I1007 00:04:01.729480  8947 net.cpp:148] Top shape: 50 200 5 6 (300000)
I1007 00:04:01.729482  8947 net.cpp:156] Memory required for data: 129261600
I1007 00:04:01.729485  8947 layer_factory.hpp:77] Creating layer pool5
I1007 00:04:01.729488  8947 net.cpp:91] Creating Layer pool5
I1007 00:04:01.729490  8947 net.cpp:425] pool5 <- conv5
I1007 00:04:01.729493  8947 net.cpp:399] pool5 -> pool5
I1007 00:04:01.729524  8947 net.cpp:141] Setting up pool5
I1007 00:04:01.729547  8947 net.cpp:148] Top shape: 50 200 3 3 (90000)
I1007 00:04:01.729549  8947 net.cpp:156] Memory required for data: 129621600
I1007 00:04:01.729552  8947 layer_factory.hpp:77] Creating layer conv6
I1007 00:04:01.729560  8947 net.cpp:91] Creating Layer conv6
I1007 00:04:01.729563  8947 net.cpp:425] conv6 <- pool5
I1007 00:04:01.729568  8947 net.cpp:399] conv6 -> conv6
I1007 00:04:01.774426  8947 net.cpp:141] Setting up conv6
I1007 00:04:01.774444  8947 net.cpp:148] Top shape: 50 4000 1 1 (200000)
I1007 00:04:01.774447  8947 net.cpp:156] Memory required for data: 130421600
I1007 00:04:01.774456  8947 layer_factory.hpp:77] Creating layer drop1
I1007 00:04:01.774464  8947 net.cpp:91] Creating Layer drop1
I1007 00:04:01.774468  8947 net.cpp:425] drop1 <- conv6
I1007 00:04:01.774474  8947 net.cpp:386] drop1 -> conv6 (in-place)
I1007 00:04:01.774505  8947 net.cpp:141] Setting up drop1
I1007 00:04:01.774510  8947 net.cpp:148] Top shape: 50 4000 1 1 (200000)
I1007 00:04:01.774513  8947 net.cpp:156] Memory required for data: 131221600
I1007 00:04:01.774516  8947 layer_factory.hpp:77] Creating layer conv7
I1007 00:04:01.774526  8947 net.cpp:91] Creating Layer conv7
I1007 00:04:01.774531  8947 net.cpp:425] conv7 <- conv6
I1007 00:04:01.774538  8947 net.cpp:399] conv7 -> conv7
I1007 00:04:01.774781  8947 net.cpp:141] Setting up conv7
I1007 00:04:01.774787  8947 net.cpp:148] Top shape: 50 4 1 1 (200)
I1007 00:04:01.774790  8947 net.cpp:156] Memory required for data: 131222400
I1007 00:04:01.774796  8947 layer_factory.hpp:77] Creating layer loss
I1007 00:04:01.774801  8947 net.cpp:91] Creating Layer loss
I1007 00:04:01.774806  8947 net.cpp:425] loss <- conv7
I1007 00:04:01.774811  8947 net.cpp:425] loss <- label
I1007 00:04:01.774818  8947 net.cpp:399] loss -> loss
I1007 00:04:01.774853  8947 net.cpp:141] Setting up loss
…
I1007 00:04:01.775178  8947 solver.cpp:181] Creating test net (#0) specified by net file: examples/BIOID_face/bioid_train_val.prototxt
I1007 00:04:01.775205  8947 net.cpp:313] The NetState phase (1) differed from the phase (0) specified by a rule in layer data
I1007 00:04:01.775315  8947 net.cpp:49] Initializing net from parameters: 
name: "FaceNet"
state {
  phase: TEST
}
layer {
  name: "data"
  type: "HDF5Data"
  top: "data"
  top: "label"
  include {
    phase: TEST
  }
  hdf5_data_param {
    source: "data/BIO_ID_face/val_scaled_compiled_data_list.txt"
    batch_size: 40
    shuffle: true
  }
}
layer {
  name: "conv1"
  type: "Convolution"
  bottom: "data"
  top: "conv1"
  param {
    lr_mult: 1
    decay_mult: 0
  }
  param {
    lr_mult: 2
    decay_mult: 0
  }
  convolution_param {
    num_output: 20
    pad: 2
    kernel_size: 11
    stride: 4
    weight_filler {
      type: "xavier"
    }
    bias_filler {
      type: "constant"
    }
  }
}
layer {
  name: "relu1"
  type: "ReLU"
  bottom: "conv1"
  top: "conv1"
}
layer {
  name: "pool1"
  type: "Pooling"
  bottom: "conv1"
  top: "pool1"
  pooling_param {
    pool: MAX
    kernel_size: 2
    stride: 2
  }
}
layer {
  name: "conv2"
  type: "Convolution"
  bottom: "pool1"
  top: "conv2"
  param {
    lr_mult: 1
    decay_mult: 0
  }
  param {
    lr_mult: 2
    decay_mult: 0
  }
  convolution_param {
    num_output: 40
    pad: 3
    kernel_size: 7
    stride: 1
    weight_filler {
      type: "xavier"
    }
    bias_filler {
      type: "constant"
    }
  }
}
layer {
  name: "relu2"
  type: "ReLU"
  bottom: "conv2"
  top: "conv2"
}
layer {
  name: "pool2"
  type: "Pooling"
  bottom: "conv2"
  top: "pool2"
  pooling_param {
    pool: MAX
    kernel_size: 2
    stride: 2
  }
}
layer {
  name: "conv3"
  type: "Convolution"
  bottom: "pool2"
  top: "conv3"
  param {
    lr_mult: 1
    decay_mult: 0
  }
  param {
    lr_mult: 2
    decay_mult: 0
  }
  convolution_param {
    num_output: 50
    pad: 2
    kernel_size: 5
    stride: 1
    weight_filler {
      type: "xavier"
    }
    bias_filler {
      type: "constant"
    }
  }
}
layer {
  name: "relu3"
  type: "ReLU"
  bottom: "conv3"
  top: "conv3"
}
layer {
  name: "pool3"
  type: "Pooling"
  bottom: "conv3"
  top: "pool3"
  pooling_param {
    pool: MAX
    kernel_size: 2
    stride: 2
  }
}
layer {
  name: "conv4"
  type: "Convolution"
  bottom: "pool3"
  top: "conv4"
  param {
    lr_mult: 1
    decay_mult: 0
  }
  param {
    lr_mult: 2
    decay_mult: 0
  }
  convolution_param {
    num_output: 100
    pad: 2
    kernel_size: 5
    stride: 1
    weight_filler {
      type: "xavier"
    }
    bias_filler {
      type: "constant"
    }
  }
}
layer {
  name: "relu4"
  type: "ReLU"
  bottom: "conv4"
  top: "conv4"
}
layer {
  name: "pool4"
  type: "Pooling"
  bottom: "conv4"
  top: "pool4"
  pooling_param {
    pool: MAX
    kernel_size: 2
    stride: 2
  }
}
layer {
  name: "conv5"
  type: "Convolution"
  bottom: "pool4"
  top: "conv5"
  param {
    lr_mult: 1
    decay_mult: 0
  }
  param {
    lr_mult: 2
    decay_mult: 0
  }
  convolution_param {
    num_output: 200
    pad: 2
    kernel_size: 5
    stride: 1
    weight_filler {
      type: "xavier"
    }
    bias_filler {
      type: "constant"
    }
  }
}
layer {
  name: "relu5"
  type: "ReLU"
  bottom: "conv5"
  top: "conv5"
}
layer {
  name: "pool5"
  type: "Pooling"
  bottom: "conv5"
  top: "pool5"
  pooling_param {
    pool: MAX
    kernel_size: 2
    stride: 2
  }
}
layer {
  name: "conv6"
  type: "Convolution"
  bottom: "pool5"
  top: "conv6"
  param {
    lr_mult: 1
    decay_mult: 0
  }
  param {
    lr_mult: 2
    decay_mult: 0
  }
  convolution_param {
    num_output: 4000
    pad: 0
    kernel_size: 3
    stride: 1
    weight_filler {
      type: "xavier"
    }
    bias_filler {
      type: "constant"
    }
  }
}
layer {
  name: "drop1"
  type: "Dropout"
  bottom: "conv6"
  top: "conv6"
  dropout_param {
    dropout_ratio: 0.5
  }
}
layer {
  name: "conv7"
  type: "Convolution"
  bottom: "conv6"
  top: "conv7"
  param {
    lr_mult: 1
    decay_mult: 0
  }
  param {
    lr_mult: 2
    decay_mult: 0
  }
  convolution_param {
    num_output: 4
    pad: 0
    kernel_size: 1
    stride: 1
    weight_filler {
      type: "xavier"
    }
    bias_filler {
      type: "constant"
    }
  }
}
layer {
  name: "loss"
  type: "EuclideanLoss"
  bottom: "conv7"
  bottom: "label"
  top: "loss"
}
I1007 00:04:01.775383  8947 layer_factory.hpp:77] Creating layer data
I1007 00:04:01.775390  8947 net.cpp:91] Creating Layer data
I1007 00:04:01.775394  8947 net.cpp:399] data -> data
I1007 00:04:01.775403  8947 net.cpp:399] data -> label
I1007 00:04:01.775408  8947 hdf5_data_layer.cpp:79] Loading list of HDF5 filenames from: data/BIO_ID_face/val_scaled_compiled_data_list.txt
I1007 00:04:01.775426  8947 hdf5_data_layer.cpp:93] Number of HDF5 files: 2
I1007 00:04:01.809530  8947 net.cpp:141] Setting up data
I1007 00:04:01.809552  8947 net.cpp:148] Top shape: 40 1 286 384 (4392960)
I1007 00:04:01.809556  8947 net.cpp:148] Top shape: 40 4 (160)
I1007 00:04:01.809558  8947 net.cpp:156] Memory required for data: 17572480
I1007 00:04:01.809563  8947 layer_factory.hpp:77] Creating layer conv1
I1007 00:04:01.809578  8947 net.cpp:91] Creating Layer conv1
I1007 00:04:01.809582  8947 net.cpp:425] conv1 <- data
I1007 00:04:01.809587  8947 net.cpp:399] conv1 -> conv1
I1007 00:04:01.809814  8947 net.cpp:141] Setting up conv1
I1007 00:04:01.809823  8947 net.cpp:148] Top shape: 40 20 70 95 (5320000)
I1007 00:04:01.809825  8947 net.cpp:156] Memory required for data: 38852480
I1007 00:04:01.809834  8947 layer_factory.hpp:77] Creating layer relu1
I1007 00:04:01.809839  8947 net.cpp:91] Creating Layer relu1
I1007 00:04:01.809842  8947 net.cpp:425] relu1 <- conv1
I1007 00:04:01.809845  8947 net.cpp:386] relu1 -> conv1 (in-place)
I1007 00:04:01.809850  8947 net.cpp:141] Setting up relu1
I1007 00:04:01.809854  8947 net.cpp:148] Top shape: 40 20 70 95 (5320000)
I1007 00:04:01.809856  8947 net.cpp:156] Memory required for data: 60132480
I1007 00:04:01.809859  8947 layer_factory.hpp:77] Creating layer pool1
I1007 00:04:01.809861  8947 net.cpp:91] Creating Layer pool1
I1007 00:04:01.809864  8947 net.cpp:425] pool1 <- conv1
I1007 00:04:01.809867  8947 net.cpp:399] pool1 -> pool1
I1007 00:04:01.809900  8947 net.cpp:141] Setting up pool1
I1007 00:04:01.809909  8947 net.cpp:148] Top shape: 40 20 35 48 (1344000)
I1007 00:04:01.809913  8947 net.cpp:156] Memory required for data: 65508480
I1007 00:04:01.809916  8947 layer_factory.hpp:77] Creating layer conv2
I1007 00:04:01.809923  8947 net.cpp:91] Creating Layer conv2
I1007 00:04:01.809926  8947 net.cpp:425] conv2 <- pool1
I1007 00:04:01.809929  8947 net.cpp:399] conv2 -> conv2
I1007 00:04:01.810330  8947 net.cpp:141] Setting up conv2
I1007 00:04:01.810338  8947 net.cpp:148] Top shape: 40 40 35 48 (2688000)
I1007 00:04:01.810340  8947 net.cpp:156] Memory required for data: 76260480
I1007 00:04:01.810346  8947 layer_factory.hpp:77] Creating layer relu2
I1007 00:04:01.810350  8947 net.cpp:91] Creating Layer relu2
I1007 00:04:01.810353  8947 net.cpp:425] relu2 <- conv2
I1007 00:04:01.810356  8947 net.cpp:386] relu2 -> conv2 (in-place)
I1007 00:04:01.810360  8947 net.cpp:141] Setting up relu2
I1007 00:04:01.810364  8947 net.cpp:148] Top shape: 40 40 35 48 (2688000)
I1007 00:04:01.810366  8947 net.cpp:156] Memory required for data: 87012480
I1007 00:04:01.810369  8947 layer_factory.hpp:77] Creating layer pool2
I1007 00:04:01.810371  8947 net.cpp:91] Creating Layer pool2
I1007 00:04:01.810374  8947 net.cpp:425] pool2 <- conv2
I1007 00:04:01.810377  8947 net.cpp:399] pool2 -> pool2
I1007 00:04:01.810405  8947 net.cpp:141] Setting up pool2
I1007 00:04:01.810413  8947 net.cpp:148] Top shape: 40 40 18 24 (691200)
I1007 00:04:01.810418  8947 net.cpp:156] Memory required for data: 89777280
I1007 00:04:01.810421  8947 layer_factory.hpp:77] Creating layer conv3
I1007 00:04:01.810430  8947 net.cpp:91] Creating Layer conv3
I1007 00:04:01.810432  8947 net.cpp:425] conv3 <- pool2
I1007 00:04:01.810437  8947 net.cpp:399] conv3 -> conv3
I1007 00:04:01.810889  8947 net.cpp:141] Setting up conv3
I1007 00:04:01.810895  8947 net.cpp:148] Top shape: 40 50 18 24 (864000)
I1007 00:04:01.810897  8947 net.cpp:156] Memory required for data: 93233280
I1007 00:04:01.810904  8947 layer_factory.hpp:77] Creating layer relu3
I1007 00:04:01.810909  8947 net.cpp:91] Creating Layer relu3
I1007 00:04:01.810911  8947 net.cpp:425] relu3 <- conv3
I1007 00:04:01.810928  8947 net.cpp:386] relu3 -> conv3 (in-place)
I1007 00:04:01.810935  8947 net.cpp:141] Setting up relu3
I1007 00:04:01.810937  8947 net.cpp:148] Top shape: 40 50 18 24 (864000)
I1007 00:04:01.810940  8947 net.cpp:156] Memory required for data: 96689280
I1007 00:04:01.810941  8947 layer_factory.hpp:77] Creating layer pool3
I1007 00:04:01.810945  8947 net.cpp:91] Creating Layer pool3
I1007 00:04:01.810950  8947 net.cpp:425] pool3 <- conv3
I1007 00:04:01.810953  8947 net.cpp:399] pool3 -> pool3
I1007 00:04:01.810987  8947 net.cpp:141] Setting up pool3
I1007 00:04:01.810994  8947 net.cpp:148] Top shape: 40 50 9 12 (216000)
I1007 00:04:01.810997  8947 net.cpp:156] Memory required for data: 97553280
I1007 00:04:01.810998  8947 layer_factory.hpp:77] Creating layer conv4
I1007 00:04:01.811005  8947 net.cpp:91] Creating Layer conv4
I1007 00:04:01.811008  8947 net.cpp:425] conv4 <- pool3
I1007 00:04:01.811012  8947 net.cpp:399] conv4 -> conv4
I1007 00:04:01.811866  8947 net.cpp:141] Setting up conv4
I1007 00:04:01.811872  8947 net.cpp:148] Top shape: 40 100 9 12 (432000)
I1007 00:04:01.811875  8947 net.cpp:156] Memory required for data: 99281280
I1007 00:04:01.811880  8947 layer_factory.hpp:77] Creating layer relu4
I1007 00:04:01.811884  8947 net.cpp:91] Creating Layer relu4
I1007 00:04:01.811887  8947 net.cpp:425] relu4 <- conv4
I1007 00:04:01.811892  8947 net.cpp:386] relu4 -> conv4 (in-place)
I1007 00:04:01.811895  8947 net.cpp:141] Setting up relu4
I1007 00:04:01.811898  8947 net.cpp:148] Top shape: 40 100 9 12 (432000)
I1007 00:04:01.811900  8947 net.cpp:156] Memory required for data: 101009280
I1007 00:04:01.811903  8947 layer_factory.hpp:77] Creating layer pool4
I1007 00:04:01.811906  8947 net.cpp:91] Creating Layer pool4
I1007 00:04:01.811908  8947 net.cpp:425] pool4 <- conv4
I1007 00:04:01.811911  8947 net.cpp:399] pool4 -> pool4
I1007 00:04:01.811940  8947 net.cpp:141] Setting up pool4
I1007 00:04:01.811947  8947 net.cpp:148] Top shape: 40 100 5 6 (120000)
I1007 00:04:01.811951  8947 net.cpp:156] Memory required for data: 101489280
I1007 00:04:01.811955  8947 layer_factory.hpp:77] Creating layer conv5
I1007 00:04:01.811969  8947 net.cpp:91] Creating Layer conv5
I1007 00:04:01.811971  8947 net.cpp:425] conv5 <- pool4
I1007 00:04:01.811976  8947 net.cpp:399] conv5 -> conv5
I1007 00:04:01.815665  8947 net.cpp:141] Setting up conv5
I1007 00:04:01.815680  8947 net.cpp:148] Top shape: 40 200 5 6 (240000)
I1007 00:04:01.815685  8947 net.cpp:156] Memory required for data: 102449280
I1007 00:04:01.815696  8947 layer_factory.hpp:77] Creating layer relu5
I1007 00:04:01.815703  8947 net.cpp:91] Creating Layer relu5
I1007 00:04:01.815709  8947 net.cpp:425] relu5 <- conv5
I1007 00:04:01.815716  8947 net.cpp:386] relu5 -> conv5 (in-place)
I1007 00:04:01.815724  8947 net.cpp:141] Setting up relu5
I1007 00:04:01.815731  8947 net.cpp:148] Top shape: 40 200 5 6 (240000)
I1007 00:04:01.815737  8947 net.cpp:156] Memory required for data: 103409280
I1007 00:04:01.815740  8947 layer_factory.hpp:77] Creating layer pool5
I1007 00:04:01.815745  8947 net.cpp:91] Creating Layer pool5
I1007 00:04:01.815749  8947 net.cpp:425] pool5 <- conv5
I1007 00:04:01.815757  8947 net.cpp:399] pool5 -> pool5
I1007 00:04:01.815796  8947 net.cpp:141] Setting up pool5
I1007 00:04:01.815804  8947 net.cpp:148] Top shape: 40 200 3 3 (72000)
I1007 00:04:01.815807  8947 net.cpp:156] Memory required for data: 103697280
I1007 00:04:01.815814  8947 layer_factory.hpp:77] Creating layer conv6
I1007 00:04:01.815826  8947 net.cpp:91] Creating Layer conv6
I1007 00:04:01.815831  8947 net.cpp:425] conv6 <- pool5
I1007 00:04:01.815840  8947 net.cpp:399] conv6 -> conv6
I1007 00:04:01.858773  8947 net.cpp:141] Setting up conv6
I1007 00:04:01.858808  8947 net.cpp:148] Top shape: 40 4000 1 1 (160000)
I1007 00:04:01.858810  8947 net.cpp:156] Memory required for data: 104337280
I1007 00:04:01.858816  8947 layer_factory.hpp:77] Creating layer drop1
I1007 00:04:01.858824  8947 net.cpp:91] Creating Layer drop1
I1007 00:04:01.858826  8947 net.cpp:425] drop1 <- conv6
I1007 00:04:01.858831  8947 net.cpp:386] drop1 -> conv6 (in-place)
I1007 00:04:01.858921  8947 net.cpp:141] Setting up drop1
I1007 00:04:01.858927  8947 net.cpp:148] Top shape: 40 4000 1 1 (160000)
I1007 00:04:01.858928  8947 net.cpp:156] Memory required for data: 104977280
I1007 00:04:01.858930  8947 layer_factory.hpp:77] Creating layer conv7
I1007 00:04:01.858937  8947 net.cpp:91] Creating Layer conv7
I1007 00:04:01.858940  8947 net.cpp:425] conv7 <- conv6
I1007 00:04:01.858947  8947 net.cpp:399] conv7 -> conv7
I1007 00:04:01.859226  8947 net.cpp:141] Setting up conv7
I1007 00:04:01.859232  8947 net.cpp:148] Top shape: 40 4 1 1 (160)
I1007 00:04:01.859235  8947 net.cpp:156] Memory required for data: 104977920
I1007 00:04:01.859238  8947 layer_factory.hpp:77] Creating layer loss
I1007 00:04:01.859241  8947 net.cpp:91] Creating Layer loss
I1007 00:04:01.859243  8947 net.cpp:425] loss <- conv7
I1007 00:04:01.859246  8947 net.cpp:425] loss <- label
I1007 00:04:01.859249  8947 net.cpp:399] loss -> loss
I1007 00:04:01.859292  8947 net.cpp:141] Setting up loss
…
