…
I1012 22:01:50.017925 26074 solver.cpp:91] Creating training net from net file: examples/BIOID_face/bioid_train_val.prototxt
I1012 22:01:50.018326 26074 net.cpp:313] The NetState phase (0) differed from the phase (1) specified by a rule in layer data
I1012 22:01:50.018442 26074 net.cpp:49] Initializing net from parameters: 
name: "FaceNet"
state {
  phase: TRAIN
}
layer {
  name: "data"
  type: "HDF5Data"
  top: "data"
  top: "label"
  include {
    phase: TRAIN
  }
  hdf5_data_param {
    source: "data/BIO_ID_face/train_scaled_compiled_data_list_mean_subtracted_own_data.txt"
    batch_size: 200
    shuffle: true
  }
}
layer {
  name: "conv1"
  type: "Convolution"
  bottom: "data"
  top: "conv1"
  param {
    lr_mult: 0
    decay_mult: 0
  }
  param {
    lr_mult: 0
    decay_mult: 0
  }
  convolution_param {
    num_output: 20
    pad: 5
    kernel_size: 11
    stride: 2
    weight_filler {
      type: "xavier"
    }
    bias_filler {
      type: "constant"
    }
  }
}
layer {
  name: "relu1"
  type: "ReLU"
  bottom: "conv1"
  top: "conv1"
}
layer {
  name: "pool1"
  type: "Pooling"
  bottom: "conv1"
  top: "pool1"
  pooling_param {
    pool: MAX
    kernel_size: 2
    stride: 2
  }
}
layer {
  name: "conv2"
  type: "Convolution"
  bottom: "pool1"
  top: "conv2"
  param {
    lr_mult: 1
    decay_mult: 0
  }
  param {
    lr_mult: 2
    decay_mult: 0
  }
  convolution_param {
    num_output: 40
    pad: 4
    kernel_size: 9
    stride: 2
    weight_filler {
      type: "xavier"
    }
    bias_filler {
      type: "constant"
    }
  }
}
layer {
  name: "relu2"
  type: "ReLU"
  bottom: "conv2"
  top: "conv2"
}
layer {
  name: "pool2"
  type: "Pooling"
  bottom: "conv2"
  top: "pool2"
  pooling_param {
    pool: MAX
    kernel_size: 2
    stride: 2
  }
}
layer {
  name: "conv3"
  type: "Convolution"
  bottom: "pool2"
  top: "conv3"
  param {
    lr_mult: 1
    decay_mult: 0
  }
  param {
    lr_mult: 2
    decay_mult: 0
  }
  convolution_param {
    num_output: 50
    pad: 3
    kernel_size: 7
    stride: 1
    weight_filler {
      type: "xavier"
    }
    bias_filler {
      type: "constant"
    }
  }
}
layer {
  name: "relu3"
  type: "ReLU"
  bottom: "conv3"
  top: "conv3"
}
layer {
  name: "pool3"
  type: "Pooling"
  bottom: "conv3"
  top: "pool3"
  pooling_param {
    pool: MAX
    kernel_size: 2
    stride: 2
  }
}
layer {
  name: "conv4"
  type: "Convolution"
  bottom: "pool3"
  top: "conv4"
  param {
    lr_mult: 1
    decay_mult: 0
  }
  param {
    lr_mult: 2
    decay_mult: 0
  }
  convolution_param {
    num_output: 100
    pad: 2
    kernel_size: 5
    stride: 1
    weight_filler {
      type: "xavier"
    }
    bias_filler {
      type: "constant"
    }
  }
}
layer {
  name: "relu4"
  type: "ReLU"
  bottom: "conv4"
  top: "conv4"
}
layer {
  name: "pool4"
  type: "Pooling"
  bottom: "conv4"
  top: "pool4"
  pooling_param {
    pool: MAX
    kernel_size: 2
    stride: 2
  }
}
layer {
  name: "fc1"
  type: "InnerProduct"
  bottom: "pool4"
  top: "fc1"
  param {
    lr_mult: 1
    decay_mult: 0
  }
  param {
    lr_mult: 2
    decay_mult: 0
  }
  inner_product_param {
    num_output: 4000
    weight_filler {
      type: "xavier"
    }
    bias_filler {
      type: "constant"
    }
  }
}
layer {
  name: "drop1"
  type: "Dropout"
  bottom: "fc1"
  top: "fc1"
  dropout_param {
    dropout_ratio: 0.5
  }
}
layer {
  name: "fc2"
  type: "InnerProduct"
  bottom: "fc1"
  top: "fc2"
  param {
    lr_mult: 1
    decay_mult: 0
  }
  param {
    lr_mult: 2
    decay_mult: 0
  }
  inner_product_param {
    num_output: 4
    weight_filler {
      type: "xavier"
    }
    bias_filler {
      type: "constant"
    }
  }
}
layer {
  name: "loss"
  type: "EuclideanLoss"
  bottom: "fc2"
  bottom: "label"
  top: "loss"
}
I1012 22:01:50.018519 26074 layer_factory.hpp:77] Creating layer data
I1012 22:01:50.018532 26074 net.cpp:91] Creating Layer data
I1012 22:01:50.018537 26074 net.cpp:399] data -> data
I1012 22:01:50.018558 26074 net.cpp:399] data -> label
I1012 22:01:50.018568 26074 hdf5_data_layer.cpp:79] Loading list of HDF5 filenames from: data/BIO_ID_face/train_scaled_compiled_data_list_mean_subtracted_own_data.txt
I1012 22:01:50.018596 26074 hdf5_data_layer.cpp:93] Number of HDF5 files: 3
I1012 22:01:50.022766 26074 hdf5.cpp:32] Datatype class: H5T_FLOAT
I1012 22:01:51.445128 26074 net.cpp:141] Setting up data
I1012 22:01:51.445153 26074 net.cpp:148] Top shape: 200 1 200 200 (8000000)
I1012 22:01:51.445158 26074 net.cpp:148] Top shape: 200 4 (800)
I1012 22:01:51.445159 26074 net.cpp:156] Memory required for data: 32003200
I1012 22:01:51.445168 26074 layer_factory.hpp:77] Creating layer conv1
I1012 22:01:51.445186 26074 net.cpp:91] Creating Layer conv1
I1012 22:01:51.445191 26074 net.cpp:425] conv1 <- data
I1012 22:01:51.445202 26074 net.cpp:399] conv1 -> conv1
I1012 22:01:51.446959 26074 net.cpp:141] Setting up conv1
I1012 22:01:51.446975 26074 net.cpp:148] Top shape: 200 20 100 100 (40000000)
I1012 22:01:51.446979 26074 net.cpp:156] Memory required for data: 192003200
I1012 22:01:51.446996 26074 layer_factory.hpp:77] Creating layer relu1
I1012 22:01:51.447006 26074 net.cpp:91] Creating Layer relu1
I1012 22:01:51.447010 26074 net.cpp:425] relu1 <- conv1
I1012 22:01:51.447015 26074 net.cpp:386] relu1 -> conv1 (in-place)
I1012 22:01:51.447022 26074 net.cpp:141] Setting up relu1
I1012 22:01:51.447026 26074 net.cpp:148] Top shape: 200 20 100 100 (40000000)
I1012 22:01:51.447028 26074 net.cpp:156] Memory required for data: 352003200
I1012 22:01:51.447031 26074 layer_factory.hpp:77] Creating layer pool1
I1012 22:01:51.447036 26074 net.cpp:91] Creating Layer pool1
I1012 22:01:51.447042 26074 net.cpp:425] pool1 <- conv1
I1012 22:01:51.447046 26074 net.cpp:399] pool1 -> pool1
I1012 22:01:51.447103 26074 net.cpp:141] Setting up pool1
I1012 22:01:51.447110 26074 net.cpp:148] Top shape: 200 20 50 50 (10000000)
I1012 22:01:51.447113 26074 net.cpp:156] Memory required for data: 392003200
I1012 22:01:51.447116 26074 layer_factory.hpp:77] Creating layer conv2
I1012 22:01:51.447125 26074 net.cpp:91] Creating Layer conv2
I1012 22:01:51.447127 26074 net.cpp:425] conv2 <- pool1
I1012 22:01:51.447134 26074 net.cpp:399] conv2 -> conv2
I1012 22:01:51.448191 26074 net.cpp:141] Setting up conv2
I1012 22:01:51.448202 26074 net.cpp:148] Top shape: 200 40 25 25 (5000000)
I1012 22:01:51.448204 26074 net.cpp:156] Memory required for data: 412003200
I1012 22:01:51.448215 26074 layer_factory.hpp:77] Creating layer relu2
I1012 22:01:51.448220 26074 net.cpp:91] Creating Layer relu2
I1012 22:01:51.448222 26074 net.cpp:425] relu2 <- conv2
I1012 22:01:51.448226 26074 net.cpp:386] relu2 -> conv2 (in-place)
I1012 22:01:51.448232 26074 net.cpp:141] Setting up relu2
I1012 22:01:51.448236 26074 net.cpp:148] Top shape: 200 40 25 25 (5000000)
I1012 22:01:51.448238 26074 net.cpp:156] Memory required for data: 432003200
I1012 22:01:51.448240 26074 layer_factory.hpp:77] Creating layer pool2
I1012 22:01:51.448246 26074 net.cpp:91] Creating Layer pool2
I1012 22:01:51.448247 26074 net.cpp:425] pool2 <- conv2
I1012 22:01:51.448251 26074 net.cpp:399] pool2 -> pool2
I1012 22:01:51.448285 26074 net.cpp:141] Setting up pool2
I1012 22:01:51.448292 26074 net.cpp:148] Top shape: 200 40 13 13 (1352000)
I1012 22:01:51.448293 26074 net.cpp:156] Memory required for data: 437411200
I1012 22:01:51.448297 26074 layer_factory.hpp:77] Creating layer conv3
I1012 22:01:51.448303 26074 net.cpp:91] Creating Layer conv3
I1012 22:01:51.448307 26074 net.cpp:425] conv3 <- pool2
I1012 22:01:51.448310 26074 net.cpp:399] conv3 -> conv3
I1012 22:01:51.449496 26074 net.cpp:141] Setting up conv3
I1012 22:01:51.449507 26074 net.cpp:148] Top shape: 200 50 13 13 (1690000)
I1012 22:01:51.449511 26074 net.cpp:156] Memory required for data: 444171200
I1012 22:01:51.449535 26074 layer_factory.hpp:77] Creating layer relu3
I1012 22:01:51.449542 26074 net.cpp:91] Creating Layer relu3
I1012 22:01:51.449545 26074 net.cpp:425] relu3 <- conv3
I1012 22:01:51.449550 26074 net.cpp:386] relu3 -> conv3 (in-place)
I1012 22:01:51.449555 26074 net.cpp:141] Setting up relu3
I1012 22:01:51.449559 26074 net.cpp:148] Top shape: 200 50 13 13 (1690000)
I1012 22:01:51.449561 26074 net.cpp:156] Memory required for data: 450931200
I1012 22:01:51.449564 26074 layer_factory.hpp:77] Creating layer pool3
I1012 22:01:51.449568 26074 net.cpp:91] Creating Layer pool3
I1012 22:01:51.449573 26074 net.cpp:425] pool3 <- conv3
I1012 22:01:51.449578 26074 net.cpp:399] pool3 -> pool3
I1012 22:01:51.449609 26074 net.cpp:141] Setting up pool3
I1012 22:01:51.449614 26074 net.cpp:148] Top shape: 200 50 7 7 (490000)
I1012 22:01:51.449615 26074 net.cpp:156] Memory required for data: 452891200
I1012 22:01:51.449618 26074 layer_factory.hpp:77] Creating layer conv4
I1012 22:01:51.449625 26074 net.cpp:91] Creating Layer conv4
I1012 22:01:51.449628 26074 net.cpp:425] conv4 <- pool3
I1012 22:01:51.449632 26074 net.cpp:399] conv4 -> conv4
I1012 22:01:51.450577 26074 net.cpp:141] Setting up conv4
I1012 22:01:51.450587 26074 net.cpp:148] Top shape: 200 100 7 7 (980000)
I1012 22:01:51.450588 26074 net.cpp:156] Memory required for data: 456811200
I1012 22:01:51.450593 26074 layer_factory.hpp:77] Creating layer relu4
I1012 22:01:51.450598 26074 net.cpp:91] Creating Layer relu4
I1012 22:01:51.450601 26074 net.cpp:425] relu4 <- conv4
I1012 22:01:51.450605 26074 net.cpp:386] relu4 -> conv4 (in-place)
I1012 22:01:51.450609 26074 net.cpp:141] Setting up relu4
I1012 22:01:51.450613 26074 net.cpp:148] Top shape: 200 100 7 7 (980000)
I1012 22:01:51.450615 26074 net.cpp:156] Memory required for data: 460731200
I1012 22:01:51.450618 26074 layer_factory.hpp:77] Creating layer pool4
I1012 22:01:51.450621 26074 net.cpp:91] Creating Layer pool4
I1012 22:01:51.450623 26074 net.cpp:425] pool4 <- conv4
I1012 22:01:51.450628 26074 net.cpp:399] pool4 -> pool4
I1012 22:01:51.450654 26074 net.cpp:141] Setting up pool4
I1012 22:01:51.450659 26074 net.cpp:148] Top shape: 200 100 4 4 (320000)
I1012 22:01:51.450661 26074 net.cpp:156] Memory required for data: 462011200
I1012 22:01:51.450664 26074 layer_factory.hpp:77] Creating layer fc1
I1012 22:01:51.450670 26074 net.cpp:91] Creating Layer fc1
I1012 22:01:51.450672 26074 net.cpp:425] fc1 <- pool4
I1012 22:01:51.450675 26074 net.cpp:399] fc1 -> fc1
I1012 22:01:51.492746 26074 net.cpp:141] Setting up fc1
I1012 22:01:51.492768 26074 net.cpp:148] Top shape: 200 4000 (800000)
I1012 22:01:51.492770 26074 net.cpp:156] Memory required for data: 465211200
I1012 22:01:51.492781 26074 layer_factory.hpp:77] Creating layer drop1
I1012 22:01:51.492790 26074 net.cpp:91] Creating Layer drop1
I1012 22:01:51.492794 26074 net.cpp:425] drop1 <- fc1
I1012 22:01:51.492799 26074 net.cpp:386] drop1 -> fc1 (in-place)
I1012 22:01:51.492826 26074 net.cpp:141] Setting up drop1
I1012 22:01:51.492832 26074 net.cpp:148] Top shape: 200 4000 (800000)
I1012 22:01:51.492835 26074 net.cpp:156] Memory required for data: 468411200
I1012 22:01:51.492836 26074 layer_factory.hpp:77] Creating layer fc2
I1012 22:01:51.492842 26074 net.cpp:91] Creating Layer fc2
I1012 22:01:51.492846 26074 net.cpp:425] fc2 <- fc1
I1012 22:01:51.492849 26074 net.cpp:399] fc2 -> fc2
I1012 22:01:51.493019 26074 net.cpp:141] Setting up fc2
I1012 22:01:51.493024 26074 net.cpp:148] Top shape: 200 4 (800)
I1012 22:01:51.493027 26074 net.cpp:156] Memory required for data: 468414400
I1012 22:01:51.493032 26074 layer_factory.hpp:77] Creating layer loss
I1012 22:01:51.493037 26074 net.cpp:91] Creating Layer loss
I1012 22:01:51.493041 26074 net.cpp:425] loss <- fc2
I1012 22:01:51.493043 26074 net.cpp:425] loss <- label
I1012 22:01:51.493048 26074 net.cpp:399] loss -> loss
I1012 22:01:51.493077 26074 net.cpp:141] Setting up loss
…
I1012 22:01:51.493376 26074 solver.cpp:181] Creating test net (#0) specified by net file: examples/BIOID_face/bioid_train_val.prototxt
I1012 22:01:51.493401 26074 net.cpp:313] The NetState phase (1) differed from the phase (0) specified by a rule in layer data
I1012 22:01:51.493507 26074 net.cpp:49] Initializing net from parameters: 
name: "FaceNet"
state {
  phase: TEST
}
layer {
  name: "data"
  type: "HDF5Data"
  top: "data"
  top: "label"
  include {
    phase: TEST
  }
  hdf5_data_param {
    source: "data/BIO_ID_face/val_scaled_compiled_data_list_mean_subtracted_own_data.txt"
    batch_size: 150
    shuffle: true
  }
}
layer {
  name: "conv1"
  type: "Convolution"
  bottom: "data"
  top: "conv1"
  param {
    lr_mult: 0
    decay_mult: 0
  }
  param {
    lr_mult: 0
    decay_mult: 0
  }
  convolution_param {
    num_output: 20
    pad: 5
    kernel_size: 11
    stride: 2
    weight_filler {
      type: "xavier"
    }
    bias_filler {
      type: "constant"
    }
  }
}
layer {
  name: "relu1"
  type: "ReLU"
  bottom: "conv1"
  top: "conv1"
}
layer {
  name: "pool1"
  type: "Pooling"
  bottom: "conv1"
  top: "pool1"
  pooling_param {
    pool: MAX
    kernel_size: 2
    stride: 2
  }
}
layer {
  name: "conv2"
  type: "Convolution"
  bottom: "pool1"
  top: "conv2"
  param {
    lr_mult: 1
    decay_mult: 0
  }
  param {
    lr_mult: 2
    decay_mult: 0
  }
  convolution_param {
    num_output: 40
    pad: 4
    kernel_size: 9
    stride: 2
    weight_filler {
      type: "xavier"
    }
    bias_filler {
      type: "constant"
    }
  }
}
layer {
  name: "relu2"
  type: "ReLU"
  bottom: "conv2"
  top: "conv2"
}
layer {
  name: "pool2"
  type: "Pooling"
  bottom: "conv2"
  top: "pool2"
  pooling_param {
    pool: MAX
    kernel_size: 2
    stride: 2
  }
}
layer {
  name: "conv3"
  type: "Convolution"
  bottom: "pool2"
  top: "conv3"
  param {
    lr_mult: 1
    decay_mult: 0
  }
  param {
    lr_mult: 2
    decay_mult: 0
  }
  convolution_param {
    num_output: 50
    pad: 3
    kernel_size: 7
    stride: 1
    weight_filler {
      type: "xavier"
    }
    bias_filler {
      type: "constant"
    }
  }
}
layer {
  name: "relu3"
  type: "ReLU"
  bottom: "conv3"
  top: "conv3"
}
layer {
  name: "pool3"
  type: "Pooling"
  bottom: "conv3"
  top: "pool3"
  pooling_param {
    pool: MAX
    kernel_size: 2
    stride: 2
  }
}
layer {
  name: "conv4"
  type: "Convolution"
  bottom: "pool3"
  top: "conv4"
  param {
    lr_mult: 1
    decay_mult: 0
  }
  param {
    lr_mult: 2
    decay_mult: 0
  }
  convolution_param {
    num_output: 100
    pad: 2
    kernel_size: 5
    stride: 1
    weight_filler {
      type: "xavier"
    }
    bias_filler {
      type: "constant"
    }
  }
}
layer {
  name: "relu4"
  type: "ReLU"
  bottom: "conv4"
  top: "conv4"
}
layer {
  name: "pool4"
  type: "Pooling"
  bottom: "conv4"
  top: "pool4"
  pooling_param {
    pool: MAX
    kernel_size: 2
    stride: 2
  }
}
layer {
  name: "fc1"
  type: "InnerProduct"
  bottom: "pool4"
  top: "fc1"
  param {
    lr_mult: 1
    decay_mult: 0
  }
  param {
    lr_mult: 2
    decay_mult: 0
  }
  inner_product_param {
    num_output: 4000
    weight_filler {
      type: "xavier"
    }
    bias_filler {
      type: "constant"
    }
  }
}
layer {
  name: "drop1"
  type: "Dropout"
  bottom: "fc1"
  top: "fc1"
  dropout_param {
    dropout_ratio: 0.5
  }
}
layer {
  name: "fc2"
  type: "InnerProduct"
  bottom: "fc1"
  top: "fc2"
  param {
    lr_mult: 1
    decay_mult: 0
  }
  param {
    lr_mult: 2
    decay_mult: 0
  }
  inner_product_param {
    num_output: 4
    weight_filler {
      type: "xavier"
    }
    bias_filler {
      type: "constant"
    }
  }
}
layer {
  name: "loss"
  type: "EuclideanLoss"
  bottom: "fc2"
  bottom: "label"
  top: "loss"
}
I1012 22:01:51.493561 26074 layer_factory.hpp:77] Creating layer data
I1012 22:01:51.493566 26074 net.cpp:91] Creating Layer data
I1012 22:01:51.493569 26074 net.cpp:399] data -> data
I1012 22:01:51.493576 26074 net.cpp:399] data -> label
I1012 22:01:51.493582 26074 hdf5_data_layer.cpp:79] Loading list of HDF5 filenames from: data/BIO_ID_face/val_scaled_compiled_data_list_mean_subtracted_own_data.txt
I1012 22:01:51.493605 26074 hdf5_data_layer.cpp:93] Number of HDF5 files: 3
I1012 22:01:51.530616 26074 net.cpp:141] Setting up data
I1012 22:01:51.530642 26074 net.cpp:148] Top shape: 150 1 200 200 (6000000)
I1012 22:01:51.530647 26074 net.cpp:148] Top shape: 150 4 (600)
I1012 22:01:51.530649 26074 net.cpp:156] Memory required for data: 24002400
I1012 22:01:51.530654 26074 layer_factory.hpp:77] Creating layer conv1
I1012 22:01:51.530669 26074 net.cpp:91] Creating Layer conv1
I1012 22:01:51.530674 26074 net.cpp:425] conv1 <- data
I1012 22:01:51.530681 26074 net.cpp:399] conv1 -> conv1
I1012 22:01:51.530899 26074 net.cpp:141] Setting up conv1
I1012 22:01:51.530906 26074 net.cpp:148] Top shape: 150 20 100 100 (30000000)
I1012 22:01:51.530910 26074 net.cpp:156] Memory required for data: 144002400
I1012 22:01:51.530918 26074 layer_factory.hpp:77] Creating layer relu1
I1012 22:01:51.530925 26074 net.cpp:91] Creating Layer relu1
I1012 22:01:51.530927 26074 net.cpp:425] relu1 <- conv1
I1012 22:01:51.530932 26074 net.cpp:386] relu1 -> conv1 (in-place)
I1012 22:01:51.530937 26074 net.cpp:141] Setting up relu1
I1012 22:01:51.530941 26074 net.cpp:148] Top shape: 150 20 100 100 (30000000)
I1012 22:01:51.530942 26074 net.cpp:156] Memory required for data: 264002400
I1012 22:01:51.530946 26074 layer_factory.hpp:77] Creating layer pool1
I1012 22:01:51.530951 26074 net.cpp:91] Creating Layer pool1
I1012 22:01:51.530952 26074 net.cpp:425] pool1 <- conv1
I1012 22:01:51.530956 26074 net.cpp:399] pool1 -> pool1
I1012 22:01:51.530987 26074 net.cpp:141] Setting up pool1
I1012 22:01:51.530993 26074 net.cpp:148] Top shape: 150 20 50 50 (7500000)
I1012 22:01:51.530995 26074 net.cpp:156] Memory required for data: 294002400
I1012 22:01:51.530997 26074 layer_factory.hpp:77] Creating layer conv2
I1012 22:01:51.531005 26074 net.cpp:91] Creating Layer conv2
I1012 22:01:51.531008 26074 net.cpp:425] conv2 <- pool1
I1012 22:01:51.531013 26074 net.cpp:399] conv2 -> conv2
I1012 22:01:51.531585 26074 net.cpp:141] Setting up conv2
I1012 22:01:51.531594 26074 net.cpp:148] Top shape: 150 40 25 25 (3750000)
I1012 22:01:51.531596 26074 net.cpp:156] Memory required for data: 309002400
I1012 22:01:51.531602 26074 layer_factory.hpp:77] Creating layer relu2
I1012 22:01:51.531607 26074 net.cpp:91] Creating Layer relu2
I1012 22:01:51.531611 26074 net.cpp:425] relu2 <- conv2
I1012 22:01:51.531615 26074 net.cpp:386] relu2 -> conv2 (in-place)
I1012 22:01:51.531620 26074 net.cpp:141] Setting up relu2
I1012 22:01:51.531637 26074 net.cpp:148] Top shape: 150 40 25 25 (3750000)
I1012 22:01:51.531641 26074 net.cpp:156] Memory required for data: 324002400
I1012 22:01:51.531642 26074 layer_factory.hpp:77] Creating layer pool2
I1012 22:01:51.531646 26074 net.cpp:91] Creating Layer pool2
I1012 22:01:51.531649 26074 net.cpp:425] pool2 <- conv2
I1012 22:01:51.531653 26074 net.cpp:399] pool2 -> pool2
I1012 22:01:51.531682 26074 net.cpp:141] Setting up pool2
I1012 22:01:51.531688 26074 net.cpp:148] Top shape: 150 40 13 13 (1014000)
I1012 22:01:51.531690 26074 net.cpp:156] Memory required for data: 328058400
I1012 22:01:51.531693 26074 layer_factory.hpp:77] Creating layer conv3
I1012 22:01:51.531699 26074 net.cpp:91] Creating Layer conv3
I1012 22:01:51.531702 26074 net.cpp:425] conv3 <- pool2
I1012 22:01:51.531707 26074 net.cpp:399] conv3 -> conv3
I1012 22:01:51.532923 26074 net.cpp:141] Setting up conv3
I1012 22:01:51.532933 26074 net.cpp:148] Top shape: 150 50 13 13 (1267500)
I1012 22:01:51.532935 26074 net.cpp:156] Memory required for data: 333128400
I1012 22:01:51.532943 26074 layer_factory.hpp:77] Creating layer relu3
I1012 22:01:51.532950 26074 net.cpp:91] Creating Layer relu3
I1012 22:01:51.532953 26074 net.cpp:425] relu3 <- conv3
I1012 22:01:51.532956 26074 net.cpp:386] relu3 -> conv3 (in-place)
I1012 22:01:51.532961 26074 net.cpp:141] Setting up relu3
I1012 22:01:51.532966 26074 net.cpp:148] Top shape: 150 50 13 13 (1267500)
I1012 22:01:51.532968 26074 net.cpp:156] Memory required for data: 338198400
I1012 22:01:51.532970 26074 layer_factory.hpp:77] Creating layer pool3
I1012 22:01:51.532974 26074 net.cpp:91] Creating Layer pool3
I1012 22:01:51.532977 26074 net.cpp:425] pool3 <- conv3
I1012 22:01:51.532980 26074 net.cpp:399] pool3 -> pool3
I1012 22:01:51.533007 26074 net.cpp:141] Setting up pool3
I1012 22:01:51.533012 26074 net.cpp:148] Top shape: 150 50 7 7 (367500)
I1012 22:01:51.533016 26074 net.cpp:156] Memory required for data: 339668400
I1012 22:01:51.533020 26074 layer_factory.hpp:77] Creating layer conv4
I1012 22:01:51.533025 26074 net.cpp:91] Creating Layer conv4
I1012 22:01:51.533028 26074 net.cpp:425] conv4 <- pool3
I1012 22:01:51.533033 26074 net.cpp:399] conv4 -> conv4
I1012 22:01:51.533913 26074 net.cpp:141] Setting up conv4
I1012 22:01:51.533921 26074 net.cpp:148] Top shape: 150 100 7 7 (735000)
I1012 22:01:51.533924 26074 net.cpp:156] Memory required for data: 342608400
I1012 22:01:51.533931 26074 layer_factory.hpp:77] Creating layer relu4
I1012 22:01:51.533934 26074 net.cpp:91] Creating Layer relu4
I1012 22:01:51.533938 26074 net.cpp:425] relu4 <- conv4
I1012 22:01:51.533941 26074 net.cpp:386] relu4 -> conv4 (in-place)
I1012 22:01:51.533947 26074 net.cpp:141] Setting up relu4
I1012 22:01:51.533952 26074 net.cpp:148] Top shape: 150 100 7 7 (735000)
I1012 22:01:51.533954 26074 net.cpp:156] Memory required for data: 345548400
I1012 22:01:51.533957 26074 layer_factory.hpp:77] Creating layer pool4
I1012 22:01:51.533962 26074 net.cpp:91] Creating Layer pool4
I1012 22:01:51.533963 26074 net.cpp:425] pool4 <- conv4
I1012 22:01:51.533967 26074 net.cpp:399] pool4 -> pool4
I1012 22:01:51.533993 26074 net.cpp:141] Setting up pool4
I1012 22:01:51.533999 26074 net.cpp:148] Top shape: 150 100 4 4 (240000)
I1012 22:01:51.534001 26074 net.cpp:156] Memory required for data: 346508400
I1012 22:01:51.534003 26074 layer_factory.hpp:77] Creating layer fc1
I1012 22:01:51.534009 26074 net.cpp:91] Creating Layer fc1
I1012 22:01:51.534013 26074 net.cpp:425] fc1 <- pool4
I1012 22:01:51.534018 26074 net.cpp:399] fc1 -> fc1
I1012 22:01:51.575716 26074 net.cpp:141] Setting up fc1
I1012 22:01:51.575738 26074 net.cpp:148] Top shape: 150 4000 (600000)
I1012 22:01:51.575742 26074 net.cpp:156] Memory required for data: 348908400
I1012 22:01:51.575753 26074 layer_factory.hpp:77] Creating layer drop1
I1012 22:01:51.575760 26074 net.cpp:91] Creating Layer drop1
I1012 22:01:51.575763 26074 net.cpp:425] drop1 <- fc1
I1012 22:01:51.575769 26074 net.cpp:386] drop1 -> fc1 (in-place)
I1012 22:01:51.575793 26074 net.cpp:141] Setting up drop1
I1012 22:01:51.575831 26074 net.cpp:148] Top shape: 150 4000 (600000)
I1012 22:01:51.575835 26074 net.cpp:156] Memory required for data: 351308400
I1012 22:01:51.575839 26074 layer_factory.hpp:77] Creating layer fc2
I1012 22:01:51.575848 26074 net.cpp:91] Creating Layer fc2
I1012 22:01:51.575852 26074 net.cpp:425] fc2 <- fc1
I1012 22:01:51.575858 26074 net.cpp:399] fc2 -> fc2
I1012 22:01:51.576045 26074 net.cpp:141] Setting up fc2
I1012 22:01:51.576052 26074 net.cpp:148] Top shape: 150 4 (600)
I1012 22:01:51.576056 26074 net.cpp:156] Memory required for data: 351310800
I1012 22:01:51.576062 26074 layer_factory.hpp:77] Creating layer loss
I1012 22:01:51.576074 26074 net.cpp:91] Creating Layer loss
I1012 22:01:51.576079 26074 net.cpp:425] loss <- fc2
I1012 22:01:51.576084 26074 net.cpp:425] loss <- label
I1012 22:01:51.576092 26074 net.cpp:399] loss -> loss
I1012 22:01:51.576124 26074 net.cpp:141] Setting up loss
…
